{"class_name": "Functional", "config": {"name": "MFuReCNN_alpha_do_Learning_rate_0.01", "trainable": true, "layers": [{"module": "keras.layers", "class_name": "InputLayer", "config": {"batch_input_shape": [null, 224, 224, 3], "dtype": "float32", "sparse": false, "ragged": false, "name": "input_1_DCNN_A_DCNN_B_DCNN_C_DCNN_A_DCNN_B_DCNN_C"}, "registered_name": null, "name": "input_1_DCNN_A_DCNN_B_DCNN_C_DCNN_A_DCNN_B_DCNN_C", "inbound_nodes": []}, {"module": "keras.layers", "class_name": "Rescaling", "config": {"name": "rescaling_2_DCNN_A", "trainable": false, "dtype": "float32", "scale": 0.00392156862745098, "offset": 0.0}, "registered_name": null, "build_config": {"input_shape": [null, 224, 224, 3]}, "name": "rescaling_2_DCNN_A", "inbound_nodes": [[["input_1_DCNN_A_DCNN_B_DCNN_C_DCNN_A_DCNN_B_DCNN_C", 0, 0, {}]]]}, {"module": "keras.layers", "class_name": "Normalization", "config": {"name": "normalization_1_DCNN_A", "trainable": false, "dtype": "float32", "axis": [3], "invert": false, "mean": null, "variance": null}, "registered_name": null, "build_config": {"input_shape": [null, 224, 224, 3]}, "name": "normalization_1_DCNN_A", "inbound_nodes": [[["rescaling_2_DCNN_A", 0, 0, {}]]]}, {"module": "keras.layers", "class_name": "Rescaling", "config": {"name": "rescaling_3_DCNN_A", "trainable": false, "dtype": "float32", "scale": [2.0896918976428642, 2.1128856368212916, 2.1081851067789197], "offset": 0.0}, "registered_name": null, "build_config": {"input_shape": [null, 224, 224, 3]}, "name": "rescaling_3_DCNN_A", "inbound_nodes": [[["normalization_1_DCNN_A", 0, 0, {}]]]}, {"module": "keras.layers", "class_name": "ZeroPadding2D", "config": {"name": "stem_conv_pad_DCNN_A", "trainable": false, "dtype": "float32", "padding": [[0, 1], [0, 1]], "data_format": "channels_last"}, "registered_name": null, "build_config": {"input_shape": [null, 224, 224, 3]}, "name": "stem_conv_pad_DCNN_A", "inbound_nodes": [[["rescaling_3_DCNN_A", 0, 0, {}]]]}, {"module": "keras.layers", "class_name": "Conv2D", "config": {"name": "stem_conv_DCNN_A", "trainable": false, "dtype": "float32", "filters": 32, "kernel_size": [3, 3], "strides": [2, 2], "padding": "valid", "data_format": "channels_last", "dilation_rate": [1, 1], "groups": 1, "activation": "linear", "use_bias": false, "kernel_initializer": {"module": "keras.initializers", "class_name": "VarianceScaling", "config": {"scale": 2.0, "mode": "fan_out", "distribution": "truncated_normal", "seed": null}, "registered_name": null}, "bias_initializer": {"module": "keras.initializers", "class_name": "Zeros", "config": {}, "registered_name": null}, "kernel_regularizer": null, "bias_regularizer": null, "activity_regularizer": null, "kernel_constraint": null, "bias_constraint": null}, "registered_name": null, "build_config": {"input_shape": [null, 225, 225, 3]}, "name": "stem_conv_DCNN_A", "inbound_nodes": [[["stem_conv_pad_DCNN_A", 0, 0, {}]]]}, {"module": "keras.layers", "class_name": "BatchNormalization", "config": {"name": "stem_bn_DCNN_A", "trainable": false, "dtype": "float32", "axis": [3], "momentum": 0.99, "epsilon": 0.001, "center": true, "scale": true, "beta_initializer": {"module": "keras.initializers", "class_name": "Zeros", "config": {}, "registered_name": null}, "gamma_initializer": {"module": "keras.initializers", "class_name": "Ones", "config": {}, "registered_name": null}, "moving_mean_initializer": {"module": "keras.initializers", "class_name": "Zeros", "config": {}, "registered_name": null}, "moving_variance_initializer": {"module": "keras.initializers", "class_name": "Ones", "config": {}, "registered_name": null}, "beta_regularizer": null, "gamma_regularizer": null, "beta_constraint": null, "gamma_constraint": null}, "registered_name": null, "build_config": {"input_shape": [null, 112, 112, 32]}, "name": "stem_bn_DCNN_A", "inbound_nodes": [[["stem_conv_DCNN_A", 0, 0, {}]]]}, {"module": "keras.layers", "class_name": "Activation", "config": {"name": "stem_activation_DCNN_A", "trainable": false, "dtype": "float32", "activation": "swish"}, "registered_name": null, "build_config": {"input_shape": [null, 112, 112, 32]}, "name": "stem_activation_DCNN_A", "inbound_nodes": [[["stem_bn_DCNN_A", 0, 0, {}]]]}, {"module": "keras.layers", "class_name": "DepthwiseConv2D", "config": {"name": "block1a_dwconv_DCNN_A", "trainable": false, "dtype": "float32", "kernel_size": [3, 3], "strides": [1, 1], "padding": "same", "data_format": "channels_last", "dilation_rate": [1, 1], "groups": 1, "activation": "linear", "use_bias": false, "bias_initializer": {"module": "keras.initializers", "class_name": "Zeros", "config": {}, "registered_name": null}, "bias_regularizer": null, "activity_regularizer": null, "bias_constraint": null, "depth_multiplier": 1, "depthwise_initializer": {"module": "keras.initializers", "class_name": "VarianceScaling", "config": {"scale": 2.0, "mode": "fan_out", "distribution": "truncated_normal", "seed": null}, "registered_name": null}, "depthwise_regularizer": null, "depthwise_constraint": null}, "registered_name": null, "build_config": {"input_shape": [null, 112, 112, 32]}, "name": "block1a_dwconv_DCNN_A", "inbound_nodes": [[["stem_activation_DCNN_A", 0, 0, {}]]]}, {"module": "keras.layers", "class_name": "BatchNormalization", "config": {"name": "block1a_bn_DCNN_A", "trainable": false, "dtype": "float32", "axis": [3], "momentum": 0.99, "epsilon": 0.001, "center": true, "scale": true, "beta_initializer": {"module": "keras.initializers", "class_name": "Zeros", "config": {}, "registered_name": null}, "gamma_initializer": {"module": "keras.initializers", "class_name": "Ones", "config": {}, "registered_name": null}, "moving_mean_initializer": {"module": "keras.initializers", "class_name": "Zeros", "config": {}, "registered_name": null}, "moving_variance_initializer": {"module": "keras.initializers", "class_name": "Ones", "config": {}, "registered_name": null}, "beta_regularizer": null, "gamma_regularizer": null, "beta_constraint": null, "gamma_constraint": null}, "registered_name": null, "build_config": {"input_shape": [null, 112, 112, 32]}, "name": "block1a_bn_DCNN_A", "inbound_nodes": [[["block1a_dwconv_DCNN_A", 0, 0, {}]]]}, {"module": "keras.layers", "class_name": "Activation", "config": {"name": "block1a_activation_DCNN_A", "trainable": false, "dtype": "float32", "activation": "swish"}, "registered_name": null, "build_config": {"input_shape": [null, 112, 112, 32]}, "name": "block1a_activation_DCNN_A", "inbound_nodes": [[["block1a_bn_DCNN_A", 0, 0, {}]]]}, {"module": "keras.layers", "class_name": "GlobalAveragePooling2D", "config": {"name": "block1a_se_squeeze_DCNN_A", "trainable": false, "dtype": "float32", "data_format": "channels_last", "keepdims": false}, "registered_name": null, "build_config": {"input_shape": [null, 112, 112, 32]}, "name": "block1a_se_squeeze_DCNN_A", "inbound_nodes": [[["block1a_activation_DCNN_A", 0, 0, {}]]]}, {"module": "keras.layers", "class_name": "Reshape", "config": {"name": "block1a_se_reshape_DCNN_A", "trainable": false, "dtype": "float32", "target_shape": [1, 1, 32]}, "registered_name": null, "build_config": {"input_shape": [null, 32]}, "name": "block1a_se_reshape_DCNN_A", "inbound_nodes": [[["block1a_se_squeeze_DCNN_A", 0, 0, {}]]]}, {"module": "keras.layers", "class_name": "Conv2D", "config": {"name": "block1a_se_reduce_DCNN_A", "trainable": false, "dtype": "float32", "filters": 8, "kernel_size": [1, 1], "strides": [1, 1], "padding": "same", "data_format": "channels_last", "dilation_rate": [1, 1], "groups": 1, "activation": "swish", "use_bias": true, "kernel_initializer": {"module": "keras.initializers", "class_name": "VarianceScaling", "config": {"scale": 2.0, "mode": "fan_out", "distribution": "truncated_normal", "seed": null}, "registered_name": null}, "bias_initializer": {"module": "keras.initializers", "class_name": "Zeros", "config": {}, "registered_name": null}, "kernel_regularizer": null, "bias_regularizer": null, "activity_regularizer": null, "kernel_constraint": null, "bias_constraint": null}, "registered_name": null, "build_config": {"input_shape": [null, 1, 1, 32]}, "name": "block1a_se_reduce_DCNN_A", "inbound_nodes": [[["block1a_se_reshape_DCNN_A", 0, 0, {}]]]}, {"module": "keras.layers", "class_name": "Conv2D", "config": {"name": "block1a_se_expand_DCNN_A", "trainable": false, "dtype": "float32", "filters": 32, "kernel_size": [1, 1], "strides": [1, 1], "padding": "same", "data_format": "channels_last", "dilation_rate": [1, 1], "groups": 1, "activation": "sigmoid", "use_bias": true, "kernel_initializer": {"module": "keras.initializers", "class_name": "VarianceScaling", "config": {"scale": 2.0, "mode": "fan_out", "distribution": "truncated_normal", "seed": null}, "registered_name": null}, "bias_initializer": {"module": "keras.initializers", "class_name": "Zeros", "config": {}, "registered_name": null}, "kernel_regularizer": null, "bias_regularizer": null, "activity_regularizer": null, "kernel_constraint": null, "bias_constraint": null}, "registered_name": null, "build_config": {"input_shape": [null, 1, 1, 8]}, "name": "block1a_se_expand_DCNN_A", "inbound_nodes": [[["block1a_se_reduce_DCNN_A", 0, 0, {}]]]}, {"module": "keras.layers", "class_name": "Multiply", "config": {"name": "block1a_se_excite_DCNN_A", "trainable": false, "dtype": "float32"}, "registered_name": null, "build_config": {"input_shape": [[null, 112, 112, 32], [null, 1, 1, 32]]}, "name": "block1a_se_excite_DCNN_A", "inbound_nodes": [[["block1a_activation_DCNN_A", 0, 0, {}], ["block1a_se_expand_DCNN_A", 0, 0, {}]]]}, {"module": "keras.layers", "class_name": "Conv2D", "config": {"name": "block1a_project_conv_DCNN_A", "trainable": false, "dtype": "float32", "filters": 16, "kernel_size": [1, 1], "strides": [1, 1], "padding": "same", "data_format": "channels_last", "dilation_rate": [1, 1], "groups": 1, "activation": "linear", "use_bias": false, "kernel_initializer": {"module": "keras.initializers", "class_name": "VarianceScaling", "config": {"scale": 2.0, "mode": "fan_out", "distribution": "truncated_normal", "seed": null}, "registered_name": null}, "bias_initializer": {"module": "keras.initializers", "class_name": "Zeros", "config": {}, "registered_name": null}, "kernel_regularizer": null, "bias_regularizer": null, "activity_regularizer": null, "kernel_constraint": null, "bias_constraint": null}, "registered_name": null, "build_config": {"input_shape": [null, 112, 112, 32]}, "name": "block1a_project_conv_DCNN_A", "inbound_nodes": [[["block1a_se_excite_DCNN_A", 0, 0, {}]]]}, {"module": "keras.layers", "class_name": "BatchNormalization", "config": {"name": "block1a_project_bn_DCNN_A", "trainable": false, "dtype": "float32", "axis": [3], "momentum": 0.99, "epsilon": 0.001, "center": true, "scale": true, "beta_initializer": {"module": "keras.initializers", "class_name": "Zeros", "config": {}, "registered_name": null}, "gamma_initializer": {"module": "keras.initializers", "class_name": "Ones", "config": {}, "registered_name": null}, "moving_mean_initializer": {"module": "keras.initializers", "class_name": "Zeros", "config": {}, "registered_name": null}, "moving_variance_initializer": {"module": "keras.initializers", "class_name": "Ones", "config": {}, "registered_name": null}, "beta_regularizer": null, "gamma_regularizer": null, "beta_constraint": null, "gamma_constraint": null}, "registered_name": null, "build_config": {"input_shape": [null, 112, 112, 16]}, "name": "block1a_project_bn_DCNN_A", "inbound_nodes": [[["block1a_project_conv_DCNN_A", 0, 0, {}]]]}, {"module": "keras.layers", "class_name": "Conv2D", "config": {"name": "block2a_expand_conv_DCNN_A", "trainable": false, "dtype": "float32", "filters": 96, "kernel_size": [1, 1], "strides": [1, 1], "padding": "same", "data_format": "channels_last", "dilation_rate": [1, 1], "groups": 1, "activation": "linear", "use_bias": false, "kernel_initializer": {"module": "keras.initializers", "class_name": "VarianceScaling", "config": {"scale": 2.0, "mode": "fan_out", "distribution": "truncated_normal", "seed": null}, "registered_name": null}, "bias_initializer": {"module": "keras.initializers", "class_name": "Zeros", "config": {}, "registered_name": null}, "kernel_regularizer": null, "bias_regularizer": null, "activity_regularizer": null, "kernel_constraint": null, "bias_constraint": null}, "registered_name": null, "build_config": {"input_shape": [null, 112, 112, 16]}, "name": "block2a_expand_conv_DCNN_A", "inbound_nodes": [[["block1a_project_bn_DCNN_A", 0, 0, {}]]]}, {"module": "keras.layers", "class_name": "BatchNormalization", "config": {"name": "block2a_expand_bn_DCNN_A", "trainable": false, "dtype": "float32", "axis": [3], "momentum": 0.99, "epsilon": 0.001, "center": true, "scale": true, "beta_initializer": {"module": "keras.initializers", "class_name": "Zeros", "config": {}, "registered_name": null}, "gamma_initializer": {"module": "keras.initializers", "class_name": "Ones", "config": {}, "registered_name": null}, "moving_mean_initializer": {"module": "keras.initializers", "class_name": "Zeros", "config": {}, "registered_name": null}, "moving_variance_initializer": {"module": "keras.initializers", "class_name": "Ones", "config": {}, "registered_name": null}, "beta_regularizer": null, "gamma_regularizer": null, "beta_constraint": null, "gamma_constraint": null}, "registered_name": null, "build_config": {"input_shape": [null, 112, 112, 96]}, "name": "block2a_expand_bn_DCNN_A", "inbound_nodes": [[["block2a_expand_conv_DCNN_A", 0, 0, {}]]]}, {"module": "keras.layers", "class_name": "Activation", "config": {"name": "block2a_expand_activation_DCNN_A", "trainable": false, "dtype": "float32", "activation": "swish"}, "registered_name": null, "build_config": {"input_shape": [null, 112, 112, 96]}, "name": "block2a_expand_activation_DCNN_A", "inbound_nodes": [[["block2a_expand_bn_DCNN_A", 0, 0, {}]]]}, {"module": "keras.layers", "class_name": "ZeroPadding2D", "config": {"name": "block2a_dwconv_pad_DCNN_A", "trainable": false, "dtype": "float32", "padding": [[0, 1], [0, 1]], "data_format": "channels_last"}, "registered_name": null, "build_config": {"input_shape": [null, 112, 112, 96]}, "name": "block2a_dwconv_pad_DCNN_A", "inbound_nodes": [[["block2a_expand_activation_DCNN_A", 0, 0, {}]]]}, {"module": "keras.layers", "class_name": "DepthwiseConv2D", "config": {"name": "block2a_dwconv_DCNN_A", "trainable": false, "dtype": "float32", "kernel_size": [3, 3], "strides": [2, 2], "padding": "valid", "data_format": "channels_last", "dilation_rate": [1, 1], "groups": 1, "activation": "linear", "use_bias": false, "bias_initializer": {"module": "keras.initializers", "class_name": "Zeros", "config": {}, "registered_name": null}, "bias_regularizer": null, "activity_regularizer": null, "bias_constraint": null, "depth_multiplier": 1, "depthwise_initializer": {"module": "keras.initializers", "class_name": "VarianceScaling", "config": {"scale": 2.0, "mode": "fan_out", "distribution": "truncated_normal", "seed": null}, "registered_name": null}, "depthwise_regularizer": null, "depthwise_constraint": null}, "registered_name": null, "build_config": {"input_shape": [null, 113, 113, 96]}, "name": "block2a_dwconv_DCNN_A", "inbound_nodes": [[["block2a_dwconv_pad_DCNN_A", 0, 0, {}]]]}, {"module": "keras.layers", "class_name": "BatchNormalization", "config": {"name": "block2a_bn_DCNN_A", "trainable": false, "dtype": "float32", "axis": [3], "momentum": 0.99, "epsilon": 0.001, "center": true, "scale": true, "beta_initializer": {"module": "keras.initializers", "class_name": "Zeros", "config": {}, "registered_name": null}, "gamma_initializer": {"module": "keras.initializers", "class_name": "Ones", "config": {}, "registered_name": null}, "moving_mean_initializer": {"module": "keras.initializers", "class_name": "Zeros", "config": {}, "registered_name": null}, "moving_variance_initializer": {"module": "keras.initializers", "class_name": "Ones", "config": {}, "registered_name": null}, "beta_regularizer": null, "gamma_regularizer": null, "beta_constraint": null, "gamma_constraint": null}, "registered_name": null, "build_config": {"input_shape": [null, 56, 56, 96]}, "name": "block2a_bn_DCNN_A", "inbound_nodes": [[["block2a_dwconv_DCNN_A", 0, 0, {}]]]}, {"module": "keras.layers", "class_name": "Activation", "config": {"name": "block2a_activation_DCNN_A", "trainable": false, "dtype": "float32", "activation": "swish"}, "registered_name": null, "build_config": {"input_shape": [null, 56, 56, 96]}, "name": "block2a_activation_DCNN_A", "inbound_nodes": [[["block2a_bn_DCNN_A", 0, 0, {}]]]}, {"module": "keras.layers", "class_name": "GlobalAveragePooling2D", "config": {"name": "block2a_se_squeeze_DCNN_A", "trainable": false, "dtype": "float32", "data_format": "channels_last", "keepdims": false}, "registered_name": null, "build_config": {"input_shape": [null, 56, 56, 96]}, "name": "block2a_se_squeeze_DCNN_A", "inbound_nodes": [[["block2a_activation_DCNN_A", 0, 0, {}]]]}, {"module": "keras.layers", "class_name": "Reshape", "config": {"name": "block2a_se_reshape_DCNN_A", "trainable": false, "dtype": "float32", "target_shape": [1, 1, 96]}, "registered_name": null, "build_config": {"input_shape": [null, 96]}, "name": "block2a_se_reshape_DCNN_A", "inbound_nodes": [[["block2a_se_squeeze_DCNN_A", 0, 0, {}]]]}, {"module": "keras.layers", "class_name": "Conv2D", "config": {"name": "block2a_se_reduce_DCNN_A", "trainable": false, "dtype": "float32", "filters": 4, "kernel_size": [1, 1], "strides": [1, 1], "padding": "same", "data_format": "channels_last", "dilation_rate": [1, 1], "groups": 1, "activation": "swish", "use_bias": true, "kernel_initializer": {"module": "keras.initializers", "class_name": "VarianceScaling", "config": {"scale": 2.0, "mode": "fan_out", "distribution": "truncated_normal", "seed": null}, "registered_name": null}, "bias_initializer": {"module": "keras.initializers", "class_name": "Zeros", "config": {}, "registered_name": null}, "kernel_regularizer": null, "bias_regularizer": null, "activity_regularizer": null, "kernel_constraint": null, "bias_constraint": null}, "registered_name": null, "build_config": {"input_shape": [null, 1, 1, 96]}, "name": "block2a_se_reduce_DCNN_A", "inbound_nodes": [[["block2a_se_reshape_DCNN_A", 0, 0, {}]]]}, {"module": "keras.layers", "class_name": "Conv2D", "config": {"name": "block2a_se_expand_DCNN_A", "trainable": false, "dtype": "float32", "filters": 96, "kernel_size": [1, 1], "strides": [1, 1], "padding": "same", "data_format": "channels_last", "dilation_rate": [1, 1], "groups": 1, "activation": "sigmoid", "use_bias": true, "kernel_initializer": {"module": "keras.initializers", "class_name": "VarianceScaling", "config": {"scale": 2.0, "mode": "fan_out", "distribution": "truncated_normal", "seed": null}, "registered_name": null}, "bias_initializer": {"module": "keras.initializers", "class_name": "Zeros", "config": {}, "registered_name": null}, "kernel_regularizer": null, "bias_regularizer": null, "activity_regularizer": null, "kernel_constraint": null, "bias_constraint": null}, "registered_name": null, "build_config": {"input_shape": [null, 1, 1, 4]}, "name": "block2a_se_expand_DCNN_A", "inbound_nodes": [[["block2a_se_reduce_DCNN_A", 0, 0, {}]]]}, {"module": "keras.layers", "class_name": "Multiply", "config": {"name": "block2a_se_excite_DCNN_A", "trainable": false, "dtype": "float32"}, "registered_name": null, "build_config": {"input_shape": [[null, 56, 56, 96], [null, 1, 1, 96]]}, "name": "block2a_se_excite_DCNN_A", "inbound_nodes": [[["block2a_activation_DCNN_A", 0, 0, {}], ["block2a_se_expand_DCNN_A", 0, 0, {}]]]}, {"module": "keras.layers", "class_name": "Conv2D", "config": {"name": "block2a_project_conv_DCNN_A", "trainable": false, "dtype": "float32", "filters": 24, "kernel_size": [1, 1], "strides": [1, 1], "padding": "same", "data_format": "channels_last", "dilation_rate": [1, 1], "groups": 1, "activation": "linear", "use_bias": false, "kernel_initializer": {"module": "keras.initializers", "class_name": "VarianceScaling", "config": {"scale": 2.0, "mode": "fan_out", "distribution": "truncated_normal", "seed": null}, "registered_name": null}, "bias_initializer": {"module": "keras.initializers", "class_name": "Zeros", "config": {}, "registered_name": null}, "kernel_regularizer": null, "bias_regularizer": null, "activity_regularizer": null, "kernel_constraint": null, "bias_constraint": null}, "registered_name": null, "build_config": {"input_shape": [null, 56, 56, 96]}, "name": "block2a_project_conv_DCNN_A", "inbound_nodes": [[["block2a_se_excite_DCNN_A", 0, 0, {}]]]}, {"module": "keras.layers", "class_name": "BatchNormalization", "config": {"name": "block2a_project_bn_DCNN_A", "trainable": false, "dtype": "float32", "axis": [3], "momentum": 0.99, "epsilon": 0.001, "center": true, "scale": true, "beta_initializer": {"module": "keras.initializers", "class_name": "Zeros", "config": {}, "registered_name": null}, "gamma_initializer": {"module": "keras.initializers", "class_name": "Ones", "config": {}, "registered_name": null}, "moving_mean_initializer": {"module": "keras.initializers", "class_name": "Zeros", "config": {}, "registered_name": null}, "moving_variance_initializer": {"module": "keras.initializers", "class_name": "Ones", "config": {}, "registered_name": null}, "beta_regularizer": null, "gamma_regularizer": null, "beta_constraint": null, "gamma_constraint": null}, "registered_name": null, "build_config": {"input_shape": [null, 56, 56, 24]}, "name": "block2a_project_bn_DCNN_A", "inbound_nodes": [[["block2a_project_conv_DCNN_A", 0, 0, {}]]]}, {"module": "keras.layers", "class_name": "Conv2D", "config": {"name": "block2b_expand_conv_DCNN_A", "trainable": false, "dtype": "float32", "filters": 144, "kernel_size": [1, 1], "strides": [1, 1], "padding": "same", "data_format": "channels_last", "dilation_rate": [1, 1], "groups": 1, "activation": "linear", "use_bias": false, "kernel_initializer": {"module": "keras.initializers", "class_name": "VarianceScaling", "config": {"scale": 2.0, "mode": "fan_out", "distribution": "truncated_normal", "seed": null}, "registered_name": null}, "bias_initializer": {"module": "keras.initializers", "class_name": "Zeros", "config": {}, "registered_name": null}, "kernel_regularizer": null, "bias_regularizer": null, "activity_regularizer": null, "kernel_constraint": null, "bias_constraint": null}, "registered_name": null, "build_config": {"input_shape": [null, 56, 56, 24]}, "name": "block2b_expand_conv_DCNN_A", "inbound_nodes": [[["block2a_project_bn_DCNN_A", 0, 0, {}]]]}, {"module": "keras.layers", "class_name": "BatchNormalization", "config": {"name": "block2b_expand_bn_DCNN_A", "trainable": false, "dtype": "float32", "axis": [3], "momentum": 0.99, "epsilon": 0.001, "center": true, "scale": true, "beta_initializer": {"module": "keras.initializers", "class_name": "Zeros", "config": {}, "registered_name": null}, "gamma_initializer": {"module": "keras.initializers", "class_name": "Ones", "config": {}, "registered_name": null}, "moving_mean_initializer": {"module": "keras.initializers", "class_name": "Zeros", "config": {}, "registered_name": null}, "moving_variance_initializer": {"module": "keras.initializers", "class_name": "Ones", "config": {}, "registered_name": null}, "beta_regularizer": null, "gamma_regularizer": null, "beta_constraint": null, "gamma_constraint": null}, "registered_name": null, "build_config": {"input_shape": [null, 56, 56, 144]}, "name": "block2b_expand_bn_DCNN_A", "inbound_nodes": [[["block2b_expand_conv_DCNN_A", 0, 0, {}]]]}, {"module": "keras.layers", "class_name": "Activation", "config": {"name": "block2b_expand_activation_DCNN_A", "trainable": false, "dtype": "float32", "activation": "swish"}, "registered_name": null, "build_config": {"input_shape": [null, 56, 56, 144]}, "name": "block2b_expand_activation_DCNN_A", "inbound_nodes": [[["block2b_expand_bn_DCNN_A", 0, 0, {}]]]}, {"module": "keras.layers", "class_name": "DepthwiseConv2D", "config": {"name": "block2b_dwconv_DCNN_A", "trainable": false, "dtype": "float32", "kernel_size": [3, 3], "strides": [1, 1], "padding": "same", "data_format": "channels_last", "dilation_rate": [1, 1], "groups": 1, "activation": "linear", "use_bias": false, "bias_initializer": {"module": "keras.initializers", "class_name": "Zeros", "config": {}, "registered_name": null}, "bias_regularizer": null, "activity_regularizer": null, "bias_constraint": null, "depth_multiplier": 1, "depthwise_initializer": {"module": "keras.initializers", "class_name": "VarianceScaling", "config": {"scale": 2.0, "mode": "fan_out", "distribution": "truncated_normal", "seed": null}, "registered_name": null}, "depthwise_regularizer": null, "depthwise_constraint": null}, "registered_name": null, "build_config": {"input_shape": [null, 56, 56, 144]}, "name": "block2b_dwconv_DCNN_A", "inbound_nodes": [[["block2b_expand_activation_DCNN_A", 0, 0, {}]]]}, {"module": "keras.layers", "class_name": "BatchNormalization", "config": {"name": "block2b_bn_DCNN_A", "trainable": false, "dtype": "float32", "axis": [3], "momentum": 0.99, "epsilon": 0.001, "center": true, "scale": true, "beta_initializer": {"module": "keras.initializers", "class_name": "Zeros", "config": {}, "registered_name": null}, "gamma_initializer": {"module": "keras.initializers", "class_name": "Ones", "config": {}, "registered_name": null}, "moving_mean_initializer": {"module": "keras.initializers", "class_name": "Zeros", "config": {}, "registered_name": null}, "moving_variance_initializer": {"module": "keras.initializers", "class_name": "Ones", "config": {}, "registered_name": null}, "beta_regularizer": null, "gamma_regularizer": null, "beta_constraint": null, "gamma_constraint": null}, "registered_name": null, "build_config": {"input_shape": [null, 56, 56, 144]}, "name": "block2b_bn_DCNN_A", "inbound_nodes": [[["block2b_dwconv_DCNN_A", 0, 0, {}]]]}, {"module": "keras.layers", "class_name": "Activation", "config": {"name": "block2b_activation_DCNN_A", "trainable": false, "dtype": "float32", "activation": "swish"}, "registered_name": null, "build_config": {"input_shape": [null, 56, 56, 144]}, "name": "block2b_activation_DCNN_A", "inbound_nodes": [[["block2b_bn_DCNN_A", 0, 0, {}]]]}, {"module": "keras.layers", "class_name": "GlobalAveragePooling2D", "config": {"name": "block2b_se_squeeze_DCNN_A", "trainable": false, "dtype": "float32", "data_format": "channels_last", "keepdims": false}, "registered_name": null, "build_config": {"input_shape": [null, 56, 56, 144]}, "name": "block2b_se_squeeze_DCNN_A", "inbound_nodes": [[["block2b_activation_DCNN_A", 0, 0, {}]]]}, {"module": "keras.layers", "class_name": "Reshape", "config": {"name": "block2b_se_reshape_DCNN_A", "trainable": false, "dtype": "float32", "target_shape": [1, 1, 144]}, "registered_name": null, "build_config": {"input_shape": [null, 144]}, "name": "block2b_se_reshape_DCNN_A", "inbound_nodes": [[["block2b_se_squeeze_DCNN_A", 0, 0, {}]]]}, {"module": "keras.layers", "class_name": "Conv2D", "config": {"name": "block2b_se_reduce_DCNN_A", "trainable": false, "dtype": "float32", "filters": 6, "kernel_size": [1, 1], "strides": [1, 1], "padding": "same", "data_format": "channels_last", "dilation_rate": [1, 1], "groups": 1, "activation": "swish", "use_bias": true, "kernel_initializer": {"module": "keras.initializers", "class_name": "VarianceScaling", "config": {"scale": 2.0, "mode": "fan_out", "distribution": "truncated_normal", "seed": null}, "registered_name": null}, "bias_initializer": {"module": "keras.initializers", "class_name": "Zeros", "config": {}, "registered_name": null}, "kernel_regularizer": null, "bias_regularizer": null, "activity_regularizer": null, "kernel_constraint": null, "bias_constraint": null}, "registered_name": null, "build_config": {"input_shape": [null, 1, 1, 144]}, "name": "block2b_se_reduce_DCNN_A", "inbound_nodes": [[["block2b_se_reshape_DCNN_A", 0, 0, {}]]]}, {"module": "keras.layers", "class_name": "Conv2D", "config": {"name": "block2b_se_expand_DCNN_A", "trainable": false, "dtype": "float32", "filters": 144, "kernel_size": [1, 1], "strides": [1, 1], "padding": "same", "data_format": "channels_last", "dilation_rate": [1, 1], "groups": 1, "activation": "sigmoid", "use_bias": true, "kernel_initializer": {"module": "keras.initializers", "class_name": "VarianceScaling", "config": {"scale": 2.0, "mode": "fan_out", "distribution": "truncated_normal", "seed": null}, "registered_name": null}, "bias_initializer": {"module": "keras.initializers", "class_name": "Zeros", "config": {}, "registered_name": null}, "kernel_regularizer": null, "bias_regularizer": null, "activity_regularizer": null, "kernel_constraint": null, "bias_constraint": null}, "registered_name": null, "build_config": {"input_shape": [null, 1, 1, 6]}, "name": "block2b_se_expand_DCNN_A", "inbound_nodes": [[["block2b_se_reduce_DCNN_A", 0, 0, {}]]]}, {"module": "keras.layers", "class_name": "Multiply", "config": {"name": "block2b_se_excite_DCNN_A", "trainable": false, "dtype": "float32"}, "registered_name": null, "build_config": {"input_shape": [[null, 56, 56, 144], [null, 1, 1, 144]]}, "name": "block2b_se_excite_DCNN_A", "inbound_nodes": [[["block2b_activation_DCNN_A", 0, 0, {}], ["block2b_se_expand_DCNN_A", 0, 0, {}]]]}, {"module": "keras.layers", "class_name": "Conv2D", "config": {"name": "block2b_project_conv_DCNN_A", "trainable": false, "dtype": "float32", "filters": 24, "kernel_size": [1, 1], "strides": [1, 1], "padding": "same", "data_format": "channels_last", "dilation_rate": [1, 1], "groups": 1, "activation": "linear", "use_bias": false, "kernel_initializer": {"module": "keras.initializers", "class_name": "VarianceScaling", "config": {"scale": 2.0, "mode": "fan_out", "distribution": "truncated_normal", "seed": null}, "registered_name": null}, "bias_initializer": {"module": "keras.initializers", "class_name": "Zeros", "config": {}, "registered_name": null}, "kernel_regularizer": null, "bias_regularizer": null, "activity_regularizer": null, "kernel_constraint": null, "bias_constraint": null}, "registered_name": null, "build_config": {"input_shape": [null, 56, 56, 144]}, "name": "block2b_project_conv_DCNN_A", "inbound_nodes": [[["block2b_se_excite_DCNN_A", 0, 0, {}]]]}, {"module": "keras.layers", "class_name": "BatchNormalization", "config": {"name": "block2b_project_bn_DCNN_A", "trainable": false, "dtype": "float32", "axis": [3], "momentum": 0.99, "epsilon": 0.001, "center": true, "scale": true, "beta_initializer": {"module": "keras.initializers", "class_name": "Zeros", "config": {}, "registered_name": null}, "gamma_initializer": {"module": "keras.initializers", "class_name": "Ones", "config": {}, "registered_name": null}, "moving_mean_initializer": {"module": "keras.initializers", "class_name": "Zeros", "config": {}, "registered_name": null}, "moving_variance_initializer": {"module": "keras.initializers", "class_name": "Ones", "config": {}, "registered_name": null}, "beta_regularizer": null, "gamma_regularizer": null, "beta_constraint": null, "gamma_constraint": null}, "registered_name": null, "build_config": {"input_shape": [null, 56, 56, 24]}, "name": "block2b_project_bn_DCNN_A", "inbound_nodes": [[["block2b_project_conv_DCNN_A", 0, 0, {}]]]}, {"module": "keras.layers", "class_name": "Dropout", "config": {"name": "block2b_drop_DCNN_A", "trainable": false, "dtype": "float32", "rate": 0.025, "noise_shape": [null, 1, 1, 1], "seed": null}, "registered_name": null, "build_config": {"input_shape": [null, 56, 56, 24]}, "name": "block2b_drop_DCNN_A", "inbound_nodes": [[["block2b_project_bn_DCNN_A", 0, 0, {}]]]}, {"module": "keras.layers", "class_name": "Add", "config": {"name": "block2b_add_DCNN_A", "trainable": false, "dtype": "float32"}, "registered_name": null, "build_config": {"input_shape": [[null, 56, 56, 24], [null, 56, 56, 24]]}, "name": "block2b_add_DCNN_A", "inbound_nodes": [[["block2b_drop_DCNN_A", 0, 0, {}], ["block2a_project_bn_DCNN_A", 0, 0, {}]]]}, {"module": "keras.layers", "class_name": "Conv2D", "config": {"name": "block3a_expand_conv_DCNN_A", "trainable": false, "dtype": "float32", "filters": 144, "kernel_size": [1, 1], "strides": [1, 1], "padding": "same", "data_format": "channels_last", "dilation_rate": [1, 1], "groups": 1, "activation": "linear", "use_bias": false, "kernel_initializer": {"module": "keras.initializers", "class_name": "VarianceScaling", "config": {"scale": 2.0, "mode": "fan_out", "distribution": "truncated_normal", "seed": null}, "registered_name": null}, "bias_initializer": {"module": "keras.initializers", "class_name": "Zeros", "config": {}, "registered_name": null}, "kernel_regularizer": null, "bias_regularizer": null, "activity_regularizer": null, "kernel_constraint": null, "bias_constraint": null}, "registered_name": null, "build_config": {"input_shape": [null, 56, 56, 24]}, "name": "block3a_expand_conv_DCNN_A", "inbound_nodes": [[["block2b_add_DCNN_A", 0, 0, {}]]]}, {"module": "keras.layers", "class_name": "BatchNormalization", "config": {"name": "block3a_expand_bn_DCNN_A", "trainable": false, "dtype": "float32", "axis": [3], "momentum": 0.99, "epsilon": 0.001, "center": true, "scale": true, "beta_initializer": {"module": "keras.initializers", "class_name": "Zeros", "config": {}, "registered_name": null}, "gamma_initializer": {"module": "keras.initializers", "class_name": "Ones", "config": {}, "registered_name": null}, "moving_mean_initializer": {"module": "keras.initializers", "class_name": "Zeros", "config": {}, "registered_name": null}, "moving_variance_initializer": {"module": "keras.initializers", "class_name": "Ones", "config": {}, "registered_name": null}, "beta_regularizer": null, "gamma_regularizer": null, "beta_constraint": null, "gamma_constraint": null}, "registered_name": null, "build_config": {"input_shape": [null, 56, 56, 144]}, "name": "block3a_expand_bn_DCNN_A", "inbound_nodes": [[["block3a_expand_conv_DCNN_A", 0, 0, {}]]]}, {"module": "keras.layers", "class_name": "Activation", "config": {"name": "block3a_expand_activation_DCNN_A", "trainable": false, "dtype": "float32", "activation": "swish"}, "registered_name": null, "build_config": {"input_shape": [null, 56, 56, 144]}, "name": "block3a_expand_activation_DCNN_A", "inbound_nodes": [[["block3a_expand_bn_DCNN_A", 0, 0, {}]]]}, {"module": "keras.layers", "class_name": "ZeroPadding2D", "config": {"name": "block3a_dwconv_pad_DCNN_A", "trainable": false, "dtype": "float32", "padding": [[1, 2], [1, 2]], "data_format": "channels_last"}, "registered_name": null, "build_config": {"input_shape": [null, 56, 56, 144]}, "name": "block3a_dwconv_pad_DCNN_A", "inbound_nodes": [[["block3a_expand_activation_DCNN_A", 0, 0, {}]]]}, {"module": "keras.layers", "class_name": "DepthwiseConv2D", "config": {"name": "block3a_dwconv_DCNN_A", "trainable": false, "dtype": "float32", "kernel_size": [5, 5], "strides": [2, 2], "padding": "valid", "data_format": "channels_last", "dilation_rate": [1, 1], "groups": 1, "activation": "linear", "use_bias": false, "bias_initializer": {"module": "keras.initializers", "class_name": "Zeros", "config": {}, "registered_name": null}, "bias_regularizer": null, "activity_regularizer": null, "bias_constraint": null, "depth_multiplier": 1, "depthwise_initializer": {"module": "keras.initializers", "class_name": "VarianceScaling", "config": {"scale": 2.0, "mode": "fan_out", "distribution": "truncated_normal", "seed": null}, "registered_name": null}, "depthwise_regularizer": null, "depthwise_constraint": null}, "registered_name": null, "build_config": {"input_shape": [null, 59, 59, 144]}, "name": "block3a_dwconv_DCNN_A", "inbound_nodes": [[["block3a_dwconv_pad_DCNN_A", 0, 0, {}]]]}, {"module": "keras.layers", "class_name": "BatchNormalization", "config": {"name": "block3a_bn_DCNN_A", "trainable": false, "dtype": "float32", "axis": [3], "momentum": 0.99, "epsilon": 0.001, "center": true, "scale": true, "beta_initializer": {"module": "keras.initializers", "class_name": "Zeros", "config": {}, "registered_name": null}, "gamma_initializer": {"module": "keras.initializers", "class_name": "Ones", "config": {}, "registered_name": null}, "moving_mean_initializer": {"module": "keras.initializers", "class_name": "Zeros", "config": {}, "registered_name": null}, "moving_variance_initializer": {"module": "keras.initializers", "class_name": "Ones", "config": {}, "registered_name": null}, "beta_regularizer": null, "gamma_regularizer": null, "beta_constraint": null, "gamma_constraint": null}, "registered_name": null, "build_config": {"input_shape": [null, 28, 28, 144]}, "name": "block3a_bn_DCNN_A", "inbound_nodes": [[["block3a_dwconv_DCNN_A", 0, 0, {}]]]}, {"module": "keras.layers", "class_name": "Activation", "config": {"name": "block3a_activation_DCNN_A", "trainable": false, "dtype": "float32", "activation": "swish"}, "registered_name": null, "build_config": {"input_shape": [null, 28, 28, 144]}, "name": "block3a_activation_DCNN_A", "inbound_nodes": [[["block3a_bn_DCNN_A", 0, 0, {}]]]}, {"module": "keras.layers", "class_name": "GlobalAveragePooling2D", "config": {"name": "block3a_se_squeeze_DCNN_A", "trainable": false, "dtype": "float32", "data_format": "channels_last", "keepdims": false}, "registered_name": null, "build_config": {"input_shape": [null, 28, 28, 144]}, "name": "block3a_se_squeeze_DCNN_A", "inbound_nodes": [[["block3a_activation_DCNN_A", 0, 0, {}]]]}, {"module": "keras.layers", "class_name": "Reshape", "config": {"name": "block3a_se_reshape_DCNN_A", "trainable": false, "dtype": "float32", "target_shape": [1, 1, 144]}, "registered_name": null, "build_config": {"input_shape": [null, 144]}, "name": "block3a_se_reshape_DCNN_A", "inbound_nodes": [[["block3a_se_squeeze_DCNN_A", 0, 0, {}]]]}, {"module": "keras.layers", "class_name": "Conv2D", "config": {"name": "block3a_se_reduce_DCNN_A", "trainable": false, "dtype": "float32", "filters": 6, "kernel_size": [1, 1], "strides": [1, 1], "padding": "same", "data_format": "channels_last", "dilation_rate": [1, 1], "groups": 1, "activation": "swish", "use_bias": true, "kernel_initializer": {"module": "keras.initializers", "class_name": "VarianceScaling", "config": {"scale": 2.0, "mode": "fan_out", "distribution": "truncated_normal", "seed": null}, "registered_name": null}, "bias_initializer": {"module": "keras.initializers", "class_name": "Zeros", "config": {}, "registered_name": null}, "kernel_regularizer": null, "bias_regularizer": null, "activity_regularizer": null, "kernel_constraint": null, "bias_constraint": null}, "registered_name": null, "build_config": {"input_shape": [null, 1, 1, 144]}, "name": "block3a_se_reduce_DCNN_A", "inbound_nodes": [[["block3a_se_reshape_DCNN_A", 0, 0, {}]]]}, {"module": "keras.layers", "class_name": "Conv2D", "config": {"name": "block3a_se_expand_DCNN_A", "trainable": false, "dtype": "float32", "filters": 144, "kernel_size": [1, 1], "strides": [1, 1], "padding": "same", "data_format": "channels_last", "dilation_rate": [1, 1], "groups": 1, "activation": "sigmoid", "use_bias": true, "kernel_initializer": {"module": "keras.initializers", "class_name": "VarianceScaling", "config": {"scale": 2.0, "mode": "fan_out", "distribution": "truncated_normal", "seed": null}, "registered_name": null}, "bias_initializer": {"module": "keras.initializers", "class_name": "Zeros", "config": {}, "registered_name": null}, "kernel_regularizer": null, "bias_regularizer": null, "activity_regularizer": null, "kernel_constraint": null, "bias_constraint": null}, "registered_name": null, "build_config": {"input_shape": [null, 1, 1, 6]}, "name": "block3a_se_expand_DCNN_A", "inbound_nodes": [[["block3a_se_reduce_DCNN_A", 0, 0, {}]]]}, {"module": "keras.layers", "class_name": "Multiply", "config": {"name": "block3a_se_excite_DCNN_A", "trainable": false, "dtype": "float32"}, "registered_name": null, "build_config": {"input_shape": [[null, 28, 28, 144], [null, 1, 1, 144]]}, "name": "block3a_se_excite_DCNN_A", "inbound_nodes": [[["block3a_activation_DCNN_A", 0, 0, {}], ["block3a_se_expand_DCNN_A", 0, 0, {}]]]}, {"module": "keras.layers", "class_name": "Conv2D", "config": {"name": "block3a_project_conv_DCNN_A", "trainable": false, "dtype": "float32", "filters": 40, "kernel_size": [1, 1], "strides": [1, 1], "padding": "same", "data_format": "channels_last", "dilation_rate": [1, 1], "groups": 1, "activation": "linear", "use_bias": false, "kernel_initializer": {"module": "keras.initializers", "class_name": "VarianceScaling", "config": {"scale": 2.0, "mode": "fan_out", "distribution": "truncated_normal", "seed": null}, "registered_name": null}, "bias_initializer": {"module": "keras.initializers", "class_name": "Zeros", "config": {}, "registered_name": null}, "kernel_regularizer": null, "bias_regularizer": null, "activity_regularizer": null, "kernel_constraint": null, "bias_constraint": null}, "registered_name": null, "build_config": {"input_shape": [null, 28, 28, 144]}, "name": "block3a_project_conv_DCNN_A", "inbound_nodes": [[["block3a_se_excite_DCNN_A", 0, 0, {}]]]}, {"module": "keras.layers", "class_name": "BatchNormalization", "config": {"name": "block3a_project_bn_DCNN_A", "trainable": false, "dtype": "float32", "axis": [3], "momentum": 0.99, "epsilon": 0.001, "center": true, "scale": true, "beta_initializer": {"module": "keras.initializers", "class_name": "Zeros", "config": {}, "registered_name": null}, "gamma_initializer": {"module": "keras.initializers", "class_name": "Ones", "config": {}, "registered_name": null}, "moving_mean_initializer": {"module": "keras.initializers", "class_name": "Zeros", "config": {}, "registered_name": null}, "moving_variance_initializer": {"module": "keras.initializers", "class_name": "Ones", "config": {}, "registered_name": null}, "beta_regularizer": null, "gamma_regularizer": null, "beta_constraint": null, "gamma_constraint": null}, "registered_name": null, "build_config": {"input_shape": [null, 28, 28, 40]}, "name": "block3a_project_bn_DCNN_A", "inbound_nodes": [[["block3a_project_conv_DCNN_A", 0, 0, {}]]]}, {"module": "keras.layers", "class_name": "Conv2D", "config": {"name": "block3b_expand_conv_DCNN_A", "trainable": false, "dtype": "float32", "filters": 240, "kernel_size": [1, 1], "strides": [1, 1], "padding": "same", "data_format": "channels_last", "dilation_rate": [1, 1], "groups": 1, "activation": "linear", "use_bias": false, "kernel_initializer": {"module": "keras.initializers", "class_name": "VarianceScaling", "config": {"scale": 2.0, "mode": "fan_out", "distribution": "truncated_normal", "seed": null}, "registered_name": null}, "bias_initializer": {"module": "keras.initializers", "class_name": "Zeros", "config": {}, "registered_name": null}, "kernel_regularizer": null, "bias_regularizer": null, "activity_regularizer": null, "kernel_constraint": null, "bias_constraint": null}, "registered_name": null, "build_config": {"input_shape": [null, 28, 28, 40]}, "name": "block3b_expand_conv_DCNN_A", "inbound_nodes": [[["block3a_project_bn_DCNN_A", 0, 0, {}]]]}, {"module": "keras.layers", "class_name": "BatchNormalization", "config": {"name": "block3b_expand_bn_DCNN_A", "trainable": false, "dtype": "float32", "axis": [3], "momentum": 0.99, "epsilon": 0.001, "center": true, "scale": true, "beta_initializer": {"module": "keras.initializers", "class_name": "Zeros", "config": {}, "registered_name": null}, "gamma_initializer": {"module": "keras.initializers", "class_name": "Ones", "config": {}, "registered_name": null}, "moving_mean_initializer": {"module": "keras.initializers", "class_name": "Zeros", "config": {}, "registered_name": null}, "moving_variance_initializer": {"module": "keras.initializers", "class_name": "Ones", "config": {}, "registered_name": null}, "beta_regularizer": null, "gamma_regularizer": null, "beta_constraint": null, "gamma_constraint": null}, "registered_name": null, "build_config": {"input_shape": [null, 28, 28, 240]}, "name": "block3b_expand_bn_DCNN_A", "inbound_nodes": [[["block3b_expand_conv_DCNN_A", 0, 0, {}]]]}, {"module": "keras.layers", "class_name": "Activation", "config": {"name": "block3b_expand_activation_DCNN_A", "trainable": false, "dtype": "float32", "activation": "swish"}, "registered_name": null, "build_config": {"input_shape": [null, 28, 28, 240]}, "name": "block3b_expand_activation_DCNN_A", "inbound_nodes": [[["block3b_expand_bn_DCNN_A", 0, 0, {}]]]}, {"module": "keras.layers", "class_name": "DepthwiseConv2D", "config": {"name": "block3b_dwconv_DCNN_A", "trainable": false, "dtype": "float32", "kernel_size": [5, 5], "strides": [1, 1], "padding": "same", "data_format": "channels_last", "dilation_rate": [1, 1], "groups": 1, "activation": "linear", "use_bias": false, "bias_initializer": {"module": "keras.initializers", "class_name": "Zeros", "config": {}, "registered_name": null}, "bias_regularizer": null, "activity_regularizer": null, "bias_constraint": null, "depth_multiplier": 1, "depthwise_initializer": {"module": "keras.initializers", "class_name": "VarianceScaling", "config": {"scale": 2.0, "mode": "fan_out", "distribution": "truncated_normal", "seed": null}, "registered_name": null}, "depthwise_regularizer": null, "depthwise_constraint": null}, "registered_name": null, "build_config": {"input_shape": [null, 28, 28, 240]}, "name": "block3b_dwconv_DCNN_A", "inbound_nodes": [[["block3b_expand_activation_DCNN_A", 0, 0, {}]]]}, {"module": "keras.layers", "class_name": "BatchNormalization", "config": {"name": "block3b_bn_DCNN_A", "trainable": false, "dtype": "float32", "axis": [3], "momentum": 0.99, "epsilon": 0.001, "center": true, "scale": true, "beta_initializer": {"module": "keras.initializers", "class_name": "Zeros", "config": {}, "registered_name": null}, "gamma_initializer": {"module": "keras.initializers", "class_name": "Ones", "config": {}, "registered_name": null}, "moving_mean_initializer": {"module": "keras.initializers", "class_name": "Zeros", "config": {}, "registered_name": null}, "moving_variance_initializer": {"module": "keras.initializers", "class_name": "Ones", "config": {}, "registered_name": null}, "beta_regularizer": null, "gamma_regularizer": null, "beta_constraint": null, "gamma_constraint": null}, "registered_name": null, "build_config": {"input_shape": [null, 28, 28, 240]}, "name": "block3b_bn_DCNN_A", "inbound_nodes": [[["block3b_dwconv_DCNN_A", 0, 0, {}]]]}, {"module": "keras.layers", "class_name": "Activation", "config": {"name": "block3b_activation_DCNN_A", "trainable": false, "dtype": "float32", "activation": "swish"}, "registered_name": null, "build_config": {"input_shape": [null, 28, 28, 240]}, "name": "block3b_activation_DCNN_A", "inbound_nodes": [[["block3b_bn_DCNN_A", 0, 0, {}]]]}, {"module": "keras.layers", "class_name": "GlobalAveragePooling2D", "config": {"name": "block3b_se_squeeze_DCNN_A", "trainable": false, "dtype": "float32", "data_format": "channels_last", "keepdims": false}, "registered_name": null, "build_config": {"input_shape": [null, 28, 28, 240]}, "name": "block3b_se_squeeze_DCNN_A", "inbound_nodes": [[["block3b_activation_DCNN_A", 0, 0, {}]]]}, {"module": "keras.layers", "class_name": "Reshape", "config": {"name": "block3b_se_reshape_DCNN_A", "trainable": false, "dtype": "float32", "target_shape": [1, 1, 240]}, "registered_name": null, "build_config": {"input_shape": [null, 240]}, "name": "block3b_se_reshape_DCNN_A", "inbound_nodes": [[["block3b_se_squeeze_DCNN_A", 0, 0, {}]]]}, {"module": "keras.layers", "class_name": "Conv2D", "config": {"name": "block3b_se_reduce_DCNN_A", "trainable": false, "dtype": "float32", "filters": 10, "kernel_size": [1, 1], "strides": [1, 1], "padding": "same", "data_format": "channels_last", "dilation_rate": [1, 1], "groups": 1, "activation": "swish", "use_bias": true, "kernel_initializer": {"module": "keras.initializers", "class_name": "VarianceScaling", "config": {"scale": 2.0, "mode": "fan_out", "distribution": "truncated_normal", "seed": null}, "registered_name": null}, "bias_initializer": {"module": "keras.initializers", "class_name": "Zeros", "config": {}, "registered_name": null}, "kernel_regularizer": null, "bias_regularizer": null, "activity_regularizer": null, "kernel_constraint": null, "bias_constraint": null}, "registered_name": null, "build_config": {"input_shape": [null, 1, 1, 240]}, "name": "block3b_se_reduce_DCNN_A", "inbound_nodes": [[["block3b_se_reshape_DCNN_A", 0, 0, {}]]]}, {"module": "keras.layers", "class_name": "Conv2D", "config": {"name": "block3b_se_expand_DCNN_A", "trainable": false, "dtype": "float32", "filters": 240, "kernel_size": [1, 1], "strides": [1, 1], "padding": "same", "data_format": "channels_last", "dilation_rate": [1, 1], "groups": 1, "activation": "sigmoid", "use_bias": true, "kernel_initializer": {"module": "keras.initializers", "class_name": "VarianceScaling", "config": {"scale": 2.0, "mode": "fan_out", "distribution": "truncated_normal", "seed": null}, "registered_name": null}, "bias_initializer": {"module": "keras.initializers", "class_name": "Zeros", "config": {}, "registered_name": null}, "kernel_regularizer": null, "bias_regularizer": null, "activity_regularizer": null, "kernel_constraint": null, "bias_constraint": null}, "registered_name": null, "build_config": {"input_shape": [null, 1, 1, 10]}, "name": "block3b_se_expand_DCNN_A", "inbound_nodes": [[["block3b_se_reduce_DCNN_A", 0, 0, {}]]]}, {"module": "keras.layers", "class_name": "Multiply", "config": {"name": "block3b_se_excite_DCNN_A", "trainable": false, "dtype": "float32"}, "registered_name": null, "build_config": {"input_shape": [[null, 28, 28, 240], [null, 1, 1, 240]]}, "name": "block3b_se_excite_DCNN_A", "inbound_nodes": [[["block3b_activation_DCNN_A", 0, 0, {}], ["block3b_se_expand_DCNN_A", 0, 0, {}]]]}, {"module": "keras.layers", "class_name": "Conv2D", "config": {"name": "block3b_project_conv_DCNN_A", "trainable": false, "dtype": "float32", "filters": 40, "kernel_size": [1, 1], "strides": [1, 1], "padding": "same", "data_format": "channels_last", "dilation_rate": [1, 1], "groups": 1, "activation": "linear", "use_bias": false, "kernel_initializer": {"module": "keras.initializers", "class_name": "VarianceScaling", "config": {"scale": 2.0, "mode": "fan_out", "distribution": "truncated_normal", "seed": null}, "registered_name": null}, "bias_initializer": {"module": "keras.initializers", "class_name": "Zeros", "config": {}, "registered_name": null}, "kernel_regularizer": null, "bias_regularizer": null, "activity_regularizer": null, "kernel_constraint": null, "bias_constraint": null}, "registered_name": null, "build_config": {"input_shape": [null, 28, 28, 240]}, "name": "block3b_project_conv_DCNN_A", "inbound_nodes": [[["block3b_se_excite_DCNN_A", 0, 0, {}]]]}, {"module": "keras.layers", "class_name": "BatchNormalization", "config": {"name": "block3b_project_bn_DCNN_A", "trainable": false, "dtype": "float32", "axis": [3], "momentum": 0.99, "epsilon": 0.001, "center": true, "scale": true, "beta_initializer": {"module": "keras.initializers", "class_name": "Zeros", "config": {}, "registered_name": null}, "gamma_initializer": {"module": "keras.initializers", "class_name": "Ones", "config": {}, "registered_name": null}, "moving_mean_initializer": {"module": "keras.initializers", "class_name": "Zeros", "config": {}, "registered_name": null}, "moving_variance_initializer": {"module": "keras.initializers", "class_name": "Ones", "config": {}, "registered_name": null}, "beta_regularizer": null, "gamma_regularizer": null, "beta_constraint": null, "gamma_constraint": null}, "registered_name": null, "build_config": {"input_shape": [null, 28, 28, 40]}, "name": "block3b_project_bn_DCNN_A", "inbound_nodes": [[["block3b_project_conv_DCNN_A", 0, 0, {}]]]}, {"module": "keras.layers", "class_name": "Dropout", "config": {"name": "block3b_drop_DCNN_A", "trainable": false, "dtype": "float32", "rate": 0.05, "noise_shape": [null, 1, 1, 1], "seed": null}, "registered_name": null, "build_config": {"input_shape": [null, 28, 28, 40]}, "name": "block3b_drop_DCNN_A", "inbound_nodes": [[["block3b_project_bn_DCNN_A", 0, 0, {}]]]}, {"module": "keras.layers", "class_name": "Add", "config": {"name": "block3b_add_DCNN_A", "trainable": false, "dtype": "float32"}, "registered_name": null, "build_config": {"input_shape": [[null, 28, 28, 40], [null, 28, 28, 40]]}, "name": "block3b_add_DCNN_A", "inbound_nodes": [[["block3b_drop_DCNN_A", 0, 0, {}], ["block3a_project_bn_DCNN_A", 0, 0, {}]]]}, {"module": "keras.layers", "class_name": "Conv2D", "config": {"name": "block4a_expand_conv_DCNN_A", "trainable": false, "dtype": "float32", "filters": 240, "kernel_size": [1, 1], "strides": [1, 1], "padding": "same", "data_format": "channels_last", "dilation_rate": [1, 1], "groups": 1, "activation": "linear", "use_bias": false, "kernel_initializer": {"module": "keras.initializers", "class_name": "VarianceScaling", "config": {"scale": 2.0, "mode": "fan_out", "distribution": "truncated_normal", "seed": null}, "registered_name": null}, "bias_initializer": {"module": "keras.initializers", "class_name": "Zeros", "config": {}, "registered_name": null}, "kernel_regularizer": null, "bias_regularizer": null, "activity_regularizer": null, "kernel_constraint": null, "bias_constraint": null}, "registered_name": null, "build_config": {"input_shape": [null, 28, 28, 40]}, "name": "block4a_expand_conv_DCNN_A", "inbound_nodes": [[["block3b_add_DCNN_A", 0, 0, {}]]]}, {"module": "keras.layers", "class_name": "BatchNormalization", "config": {"name": "block4a_expand_bn_DCNN_A", "trainable": false, "dtype": "float32", "axis": [3], "momentum": 0.99, "epsilon": 0.001, "center": true, "scale": true, "beta_initializer": {"module": "keras.initializers", "class_name": "Zeros", "config": {}, "registered_name": null}, "gamma_initializer": {"module": "keras.initializers", "class_name": "Ones", "config": {}, "registered_name": null}, "moving_mean_initializer": {"module": "keras.initializers", "class_name": "Zeros", "config": {}, "registered_name": null}, "moving_variance_initializer": {"module": "keras.initializers", "class_name": "Ones", "config": {}, "registered_name": null}, "beta_regularizer": null, "gamma_regularizer": null, "beta_constraint": null, "gamma_constraint": null}, "registered_name": null, "build_config": {"input_shape": [null, 28, 28, 240]}, "name": "block4a_expand_bn_DCNN_A", "inbound_nodes": [[["block4a_expand_conv_DCNN_A", 0, 0, {}]]]}, {"module": "keras.layers", "class_name": "Activation", "config": {"name": "block4a_expand_activation_DCNN_A", "trainable": false, "dtype": "float32", "activation": "swish"}, "registered_name": null, "build_config": {"input_shape": [null, 28, 28, 240]}, "name": "block4a_expand_activation_DCNN_A", "inbound_nodes": [[["block4a_expand_bn_DCNN_A", 0, 0, {}]]]}, {"module": "keras.layers", "class_name": "ZeroPadding2D", "config": {"name": "block4a_dwconv_pad_DCNN_A", "trainable": false, "dtype": "float32", "padding": [[0, 1], [0, 1]], "data_format": "channels_last"}, "registered_name": null, "build_config": {"input_shape": [null, 28, 28, 240]}, "name": "block4a_dwconv_pad_DCNN_A", "inbound_nodes": [[["block4a_expand_activation_DCNN_A", 0, 0, {}]]]}, {"module": "keras.layers", "class_name": "DepthwiseConv2D", "config": {"name": "block4a_dwconv_DCNN_A", "trainable": false, "dtype": "float32", "kernel_size": [3, 3], "strides": [2, 2], "padding": "valid", "data_format": "channels_last", "dilation_rate": [1, 1], "groups": 1, "activation": "linear", "use_bias": false, "bias_initializer": {"module": "keras.initializers", "class_name": "Zeros", "config": {}, "registered_name": null}, "bias_regularizer": null, "activity_regularizer": null, "bias_constraint": null, "depth_multiplier": 1, "depthwise_initializer": {"module": "keras.initializers", "class_name": "VarianceScaling", "config": {"scale": 2.0, "mode": "fan_out", "distribution": "truncated_normal", "seed": null}, "registered_name": null}, "depthwise_regularizer": null, "depthwise_constraint": null}, "registered_name": null, "build_config": {"input_shape": [null, 29, 29, 240]}, "name": "block4a_dwconv_DCNN_A", "inbound_nodes": [[["block4a_dwconv_pad_DCNN_A", 0, 0, {}]]]}, {"module": "keras.layers", "class_name": "BatchNormalization", "config": {"name": "block4a_bn_DCNN_A", "trainable": false, "dtype": "float32", "axis": [3], "momentum": 0.99, "epsilon": 0.001, "center": true, "scale": true, "beta_initializer": {"module": "keras.initializers", "class_name": "Zeros", "config": {}, "registered_name": null}, "gamma_initializer": {"module": "keras.initializers", "class_name": "Ones", "config": {}, "registered_name": null}, "moving_mean_initializer": {"module": "keras.initializers", "class_name": "Zeros", "config": {}, "registered_name": null}, "moving_variance_initializer": {"module": "keras.initializers", "class_name": "Ones", "config": {}, "registered_name": null}, "beta_regularizer": null, "gamma_regularizer": null, "beta_constraint": null, "gamma_constraint": null}, "registered_name": null, "build_config": {"input_shape": [null, 14, 14, 240]}, "name": "block4a_bn_DCNN_A", "inbound_nodes": [[["block4a_dwconv_DCNN_A", 0, 0, {}]]]}, {"module": "keras.layers", "class_name": "Activation", "config": {"name": "block4a_activation_DCNN_A", "trainable": false, "dtype": "float32", "activation": "swish"}, "registered_name": null, "build_config": {"input_shape": [null, 14, 14, 240]}, "name": "block4a_activation_DCNN_A", "inbound_nodes": [[["block4a_bn_DCNN_A", 0, 0, {}]]]}, {"module": "keras.layers", "class_name": "GlobalAveragePooling2D", "config": {"name": "block4a_se_squeeze_DCNN_A", "trainable": false, "dtype": "float32", "data_format": "channels_last", "keepdims": false}, "registered_name": null, "build_config": {"input_shape": [null, 14, 14, 240]}, "name": "block4a_se_squeeze_DCNN_A", "inbound_nodes": [[["block4a_activation_DCNN_A", 0, 0, {}]]]}, {"module": "keras.layers", "class_name": "Reshape", "config": {"name": "block4a_se_reshape_DCNN_A", "trainable": false, "dtype": "float32", "target_shape": [1, 1, 240]}, "registered_name": null, "build_config": {"input_shape": [null, 240]}, "name": "block4a_se_reshape_DCNN_A", "inbound_nodes": [[["block4a_se_squeeze_DCNN_A", 0, 0, {}]]]}, {"module": "keras.layers", "class_name": "Conv2D", "config": {"name": "block4a_se_reduce_DCNN_A", "trainable": false, "dtype": "float32", "filters": 10, "kernel_size": [1, 1], "strides": [1, 1], "padding": "same", "data_format": "channels_last", "dilation_rate": [1, 1], "groups": 1, "activation": "swish", "use_bias": true, "kernel_initializer": {"module": "keras.initializers", "class_name": "VarianceScaling", "config": {"scale": 2.0, "mode": "fan_out", "distribution": "truncated_normal", "seed": null}, "registered_name": null}, "bias_initializer": {"module": "keras.initializers", "class_name": "Zeros", "config": {}, "registered_name": null}, "kernel_regularizer": null, "bias_regularizer": null, "activity_regularizer": null, "kernel_constraint": null, "bias_constraint": null}, "registered_name": null, "build_config": {"input_shape": [null, 1, 1, 240]}, "name": "block4a_se_reduce_DCNN_A", "inbound_nodes": [[["block4a_se_reshape_DCNN_A", 0, 0, {}]]]}, {"module": "keras.layers", "class_name": "Conv2D", "config": {"name": "block4a_se_expand_DCNN_A", "trainable": false, "dtype": "float32", "filters": 240, "kernel_size": [1, 1], "strides": [1, 1], "padding": "same", "data_format": "channels_last", "dilation_rate": [1, 1], "groups": 1, "activation": "sigmoid", "use_bias": true, "kernel_initializer": {"module": "keras.initializers", "class_name": "VarianceScaling", "config": {"scale": 2.0, "mode": "fan_out", "distribution": "truncated_normal", "seed": null}, "registered_name": null}, "bias_initializer": {"module": "keras.initializers", "class_name": "Zeros", "config": {}, "registered_name": null}, "kernel_regularizer": null, "bias_regularizer": null, "activity_regularizer": null, "kernel_constraint": null, "bias_constraint": null}, "registered_name": null, "build_config": {"input_shape": [null, 1, 1, 10]}, "name": "block4a_se_expand_DCNN_A", "inbound_nodes": [[["block4a_se_reduce_DCNN_A", 0, 0, {}]]]}, {"module": "keras.layers", "class_name": "Multiply", "config": {"name": "block4a_se_excite_DCNN_A", "trainable": false, "dtype": "float32"}, "registered_name": null, "build_config": {"input_shape": [[null, 14, 14, 240], [null, 1, 1, 240]]}, "name": "block4a_se_excite_DCNN_A", "inbound_nodes": [[["block4a_activation_DCNN_A", 0, 0, {}], ["block4a_se_expand_DCNN_A", 0, 0, {}]]]}, {"module": "keras.layers", "class_name": "Conv2D", "config": {"name": "block4a_project_conv_DCNN_A", "trainable": false, "dtype": "float32", "filters": 80, "kernel_size": [1, 1], "strides": [1, 1], "padding": "same", "data_format": "channels_last", "dilation_rate": [1, 1], "groups": 1, "activation": "linear", "use_bias": false, "kernel_initializer": {"module": "keras.initializers", "class_name": "VarianceScaling", "config": {"scale": 2.0, "mode": "fan_out", "distribution": "truncated_normal", "seed": null}, "registered_name": null}, "bias_initializer": {"module": "keras.initializers", "class_name": "Zeros", "config": {}, "registered_name": null}, "kernel_regularizer": null, "bias_regularizer": null, "activity_regularizer": null, "kernel_constraint": null, "bias_constraint": null}, "registered_name": null, "build_config": {"input_shape": [null, 14, 14, 240]}, "name": "block4a_project_conv_DCNN_A", "inbound_nodes": [[["block4a_se_excite_DCNN_A", 0, 0, {}]]]}, {"module": "keras.layers", "class_name": "BatchNormalization", "config": {"name": "block4a_project_bn_DCNN_A", "trainable": false, "dtype": "float32", "axis": [3], "momentum": 0.99, "epsilon": 0.001, "center": true, "scale": true, "beta_initializer": {"module": "keras.initializers", "class_name": "Zeros", "config": {}, "registered_name": null}, "gamma_initializer": {"module": "keras.initializers", "class_name": "Ones", "config": {}, "registered_name": null}, "moving_mean_initializer": {"module": "keras.initializers", "class_name": "Zeros", "config": {}, "registered_name": null}, "moving_variance_initializer": {"module": "keras.initializers", "class_name": "Ones", "config": {}, "registered_name": null}, "beta_regularizer": null, "gamma_regularizer": null, "beta_constraint": null, "gamma_constraint": null}, "registered_name": null, "build_config": {"input_shape": [null, 14, 14, 80]}, "name": "block4a_project_bn_DCNN_A", "inbound_nodes": [[["block4a_project_conv_DCNN_A", 0, 0, {}]]]}, {"module": "keras.layers", "class_name": "Conv2D", "config": {"name": "block4b_expand_conv_DCNN_A", "trainable": false, "dtype": "float32", "filters": 480, "kernel_size": [1, 1], "strides": [1, 1], "padding": "same", "data_format": "channels_last", "dilation_rate": [1, 1], "groups": 1, "activation": "linear", "use_bias": false, "kernel_initializer": {"module": "keras.initializers", "class_name": "VarianceScaling", "config": {"scale": 2.0, "mode": "fan_out", "distribution": "truncated_normal", "seed": null}, "registered_name": null}, "bias_initializer": {"module": "keras.initializers", "class_name": "Zeros", "config": {}, "registered_name": null}, "kernel_regularizer": null, "bias_regularizer": null, "activity_regularizer": null, "kernel_constraint": null, "bias_constraint": null}, "registered_name": null, "build_config": {"input_shape": [null, 14, 14, 80]}, "name": "block4b_expand_conv_DCNN_A", "inbound_nodes": [[["block4a_project_bn_DCNN_A", 0, 0, {}]]]}, {"module": "keras.layers", "class_name": "BatchNormalization", "config": {"name": "block4b_expand_bn_DCNN_A", "trainable": false, "dtype": "float32", "axis": [3], "momentum": 0.99, "epsilon": 0.001, "center": true, "scale": true, "beta_initializer": {"module": "keras.initializers", "class_name": "Zeros", "config": {}, "registered_name": null}, "gamma_initializer": {"module": "keras.initializers", "class_name": "Ones", "config": {}, "registered_name": null}, "moving_mean_initializer": {"module": "keras.initializers", "class_name": "Zeros", "config": {}, "registered_name": null}, "moving_variance_initializer": {"module": "keras.initializers", "class_name": "Ones", "config": {}, "registered_name": null}, "beta_regularizer": null, "gamma_regularizer": null, "beta_constraint": null, "gamma_constraint": null}, "registered_name": null, "build_config": {"input_shape": [null, 14, 14, 480]}, "name": "block4b_expand_bn_DCNN_A", "inbound_nodes": [[["block4b_expand_conv_DCNN_A", 0, 0, {}]]]}, {"module": "keras.layers", "class_name": "Activation", "config": {"name": "block4b_expand_activation_DCNN_A", "trainable": false, "dtype": "float32", "activation": "swish"}, "registered_name": null, "build_config": {"input_shape": [null, 14, 14, 480]}, "name": "block4b_expand_activation_DCNN_A", "inbound_nodes": [[["block4b_expand_bn_DCNN_A", 0, 0, {}]]]}, {"module": "keras.layers", "class_name": "DepthwiseConv2D", "config": {"name": "block4b_dwconv_DCNN_A", "trainable": false, "dtype": "float32", "kernel_size": [3, 3], "strides": [1, 1], "padding": "same", "data_format": "channels_last", "dilation_rate": [1, 1], "groups": 1, "activation": "linear", "use_bias": false, "bias_initializer": {"module": "keras.initializers", "class_name": "Zeros", "config": {}, "registered_name": null}, "bias_regularizer": null, "activity_regularizer": null, "bias_constraint": null, "depth_multiplier": 1, "depthwise_initializer": {"module": "keras.initializers", "class_name": "VarianceScaling", "config": {"scale": 2.0, "mode": "fan_out", "distribution": "truncated_normal", "seed": null}, "registered_name": null}, "depthwise_regularizer": null, "depthwise_constraint": null}, "registered_name": null, "build_config": {"input_shape": [null, 14, 14, 480]}, "name": "block4b_dwconv_DCNN_A", "inbound_nodes": [[["block4b_expand_activation_DCNN_A", 0, 0, {}]]]}, {"module": "keras.layers", "class_name": "BatchNormalization", "config": {"name": "block4b_bn_DCNN_A", "trainable": false, "dtype": "float32", "axis": [3], "momentum": 0.99, "epsilon": 0.001, "center": true, "scale": true, "beta_initializer": {"module": "keras.initializers", "class_name": "Zeros", "config": {}, "registered_name": null}, "gamma_initializer": {"module": "keras.initializers", "class_name": "Ones", "config": {}, "registered_name": null}, "moving_mean_initializer": {"module": "keras.initializers", "class_name": "Zeros", "config": {}, "registered_name": null}, "moving_variance_initializer": {"module": "keras.initializers", "class_name": "Ones", "config": {}, "registered_name": null}, "beta_regularizer": null, "gamma_regularizer": null, "beta_constraint": null, "gamma_constraint": null}, "registered_name": null, "build_config": {"input_shape": [null, 14, 14, 480]}, "name": "block4b_bn_DCNN_A", "inbound_nodes": [[["block4b_dwconv_DCNN_A", 0, 0, {}]]]}, {"module": "keras.layers", "class_name": "Activation", "config": {"name": "block4b_activation_DCNN_A", "trainable": false, "dtype": "float32", "activation": "swish"}, "registered_name": null, "build_config": {"input_shape": [null, 14, 14, 480]}, "name": "block4b_activation_DCNN_A", "inbound_nodes": [[["block4b_bn_DCNN_A", 0, 0, {}]]]}, {"module": "keras.layers", "class_name": "GlobalAveragePooling2D", "config": {"name": "block4b_se_squeeze_DCNN_A", "trainable": false, "dtype": "float32", "data_format": "channels_last", "keepdims": false}, "registered_name": null, "build_config": {"input_shape": [null, 14, 14, 480]}, "name": "block4b_se_squeeze_DCNN_A", "inbound_nodes": [[["block4b_activation_DCNN_A", 0, 0, {}]]]}, {"module": "keras.layers", "class_name": "Reshape", "config": {"name": "block4b_se_reshape_DCNN_A", "trainable": false, "dtype": "float32", "target_shape": [1, 1, 480]}, "registered_name": null, "build_config": {"input_shape": [null, 480]}, "name": "block4b_se_reshape_DCNN_A", "inbound_nodes": [[["block4b_se_squeeze_DCNN_A", 0, 0, {}]]]}, {"module": "keras.layers", "class_name": "Conv2D", "config": {"name": "block4b_se_reduce_DCNN_A", "trainable": false, "dtype": "float32", "filters": 20, "kernel_size": [1, 1], "strides": [1, 1], "padding": "same", "data_format": "channels_last", "dilation_rate": [1, 1], "groups": 1, "activation": "swish", "use_bias": true, "kernel_initializer": {"module": "keras.initializers", "class_name": "VarianceScaling", "config": {"scale": 2.0, "mode": "fan_out", "distribution": "truncated_normal", "seed": null}, "registered_name": null}, "bias_initializer": {"module": "keras.initializers", "class_name": "Zeros", "config": {}, "registered_name": null}, "kernel_regularizer": null, "bias_regularizer": null, "activity_regularizer": null, "kernel_constraint": null, "bias_constraint": null}, "registered_name": null, "build_config": {"input_shape": [null, 1, 1, 480]}, "name": "block4b_se_reduce_DCNN_A", "inbound_nodes": [[["block4b_se_reshape_DCNN_A", 0, 0, {}]]]}, {"module": "keras.layers", "class_name": "Conv2D", "config": {"name": "block4b_se_expand_DCNN_A", "trainable": false, "dtype": "float32", "filters": 480, "kernel_size": [1, 1], "strides": [1, 1], "padding": "same", "data_format": "channels_last", "dilation_rate": [1, 1], "groups": 1, "activation": "sigmoid", "use_bias": true, "kernel_initializer": {"module": "keras.initializers", "class_name": "VarianceScaling", "config": {"scale": 2.0, "mode": "fan_out", "distribution": "truncated_normal", "seed": null}, "registered_name": null}, "bias_initializer": {"module": "keras.initializers", "class_name": "Zeros", "config": {}, "registered_name": null}, "kernel_regularizer": null, "bias_regularizer": null, "activity_regularizer": null, "kernel_constraint": null, "bias_constraint": null}, "registered_name": null, "build_config": {"input_shape": [null, 1, 1, 20]}, "name": "block4b_se_expand_DCNN_A", "inbound_nodes": [[["block4b_se_reduce_DCNN_A", 0, 0, {}]]]}, {"module": "keras.layers", "class_name": "Multiply", "config": {"name": "block4b_se_excite_DCNN_A", "trainable": false, "dtype": "float32"}, "registered_name": null, "build_config": {"input_shape": [[null, 14, 14, 480], [null, 1, 1, 480]]}, "name": "block4b_se_excite_DCNN_A", "inbound_nodes": [[["block4b_activation_DCNN_A", 0, 0, {}], ["block4b_se_expand_DCNN_A", 0, 0, {}]]]}, {"module": "keras.layers", "class_name": "Conv2D", "config": {"name": "block4b_project_conv_DCNN_A", "trainable": false, "dtype": "float32", "filters": 80, "kernel_size": [1, 1], "strides": [1, 1], "padding": "same", "data_format": "channels_last", "dilation_rate": [1, 1], "groups": 1, "activation": "linear", "use_bias": false, "kernel_initializer": {"module": "keras.initializers", "class_name": "VarianceScaling", "config": {"scale": 2.0, "mode": "fan_out", "distribution": "truncated_normal", "seed": null}, "registered_name": null}, "bias_initializer": {"module": "keras.initializers", "class_name": "Zeros", "config": {}, "registered_name": null}, "kernel_regularizer": null, "bias_regularizer": null, "activity_regularizer": null, "kernel_constraint": null, "bias_constraint": null}, "registered_name": null, "build_config": {"input_shape": [null, 14, 14, 480]}, "name": "block4b_project_conv_DCNN_A", "inbound_nodes": [[["block4b_se_excite_DCNN_A", 0, 0, {}]]]}, {"module": "keras.layers", "class_name": "BatchNormalization", "config": {"name": "block4b_project_bn_DCNN_A", "trainable": false, "dtype": "float32", "axis": [3], "momentum": 0.99, "epsilon": 0.001, "center": true, "scale": true, "beta_initializer": {"module": "keras.initializers", "class_name": "Zeros", "config": {}, "registered_name": null}, "gamma_initializer": {"module": "keras.initializers", "class_name": "Ones", "config": {}, "registered_name": null}, "moving_mean_initializer": {"module": "keras.initializers", "class_name": "Zeros", "config": {}, "registered_name": null}, "moving_variance_initializer": {"module": "keras.initializers", "class_name": "Ones", "config": {}, "registered_name": null}, "beta_regularizer": null, "gamma_regularizer": null, "beta_constraint": null, "gamma_constraint": null}, "registered_name": null, "build_config": {"input_shape": [null, 14, 14, 80]}, "name": "block4b_project_bn_DCNN_A", "inbound_nodes": [[["block4b_project_conv_DCNN_A", 0, 0, {}]]]}, {"module": "keras.layers", "class_name": "Dropout", "config": {"name": "block4b_drop_DCNN_A", "trainable": false, "dtype": "float32", "rate": 0.07500000000000001, "noise_shape": [null, 1, 1, 1], "seed": null}, "registered_name": null, "build_config": {"input_shape": [null, 14, 14, 80]}, "name": "block4b_drop_DCNN_A", "inbound_nodes": [[["block4b_project_bn_DCNN_A", 0, 0, {}]]]}, {"module": "keras.layers", "class_name": "Add", "config": {"name": "block4b_add_DCNN_A", "trainable": false, "dtype": "float32"}, "registered_name": null, "build_config": {"input_shape": [[null, 14, 14, 80], [null, 14, 14, 80]]}, "name": "block4b_add_DCNN_A", "inbound_nodes": [[["block4b_drop_DCNN_A", 0, 0, {}], ["block4a_project_bn_DCNN_A", 0, 0, {}]]]}, {"module": "keras.layers", "class_name": "Conv2D", "config": {"name": "block4c_expand_conv_DCNN_A", "trainable": false, "dtype": "float32", "filters": 480, "kernel_size": [1, 1], "strides": [1, 1], "padding": "same", "data_format": "channels_last", "dilation_rate": [1, 1], "groups": 1, "activation": "linear", "use_bias": false, "kernel_initializer": {"module": "keras.initializers", "class_name": "VarianceScaling", "config": {"scale": 2.0, "mode": "fan_out", "distribution": "truncated_normal", "seed": null}, "registered_name": null}, "bias_initializer": {"module": "keras.initializers", "class_name": "Zeros", "config": {}, "registered_name": null}, "kernel_regularizer": null, "bias_regularizer": null, "activity_regularizer": null, "kernel_constraint": null, "bias_constraint": null}, "registered_name": null, "build_config": {"input_shape": [null, 14, 14, 80]}, "name": "block4c_expand_conv_DCNN_A", "inbound_nodes": [[["block4b_add_DCNN_A", 0, 0, {}]]]}, {"module": "keras.layers", "class_name": "BatchNormalization", "config": {"name": "block4c_expand_bn_DCNN_A", "trainable": false, "dtype": "float32", "axis": [3], "momentum": 0.99, "epsilon": 0.001, "center": true, "scale": true, "beta_initializer": {"module": "keras.initializers", "class_name": "Zeros", "config": {}, "registered_name": null}, "gamma_initializer": {"module": "keras.initializers", "class_name": "Ones", "config": {}, "registered_name": null}, "moving_mean_initializer": {"module": "keras.initializers", "class_name": "Zeros", "config": {}, "registered_name": null}, "moving_variance_initializer": {"module": "keras.initializers", "class_name": "Ones", "config": {}, "registered_name": null}, "beta_regularizer": null, "gamma_regularizer": null, "beta_constraint": null, "gamma_constraint": null}, "registered_name": null, "build_config": {"input_shape": [null, 14, 14, 480]}, "name": "block4c_expand_bn_DCNN_A", "inbound_nodes": [[["block4c_expand_conv_DCNN_A", 0, 0, {}]]]}, {"module": "keras.layers", "class_name": "Activation", "config": {"name": "block4c_expand_activation_DCNN_A", "trainable": false, "dtype": "float32", "activation": "swish"}, "registered_name": null, "build_config": {"input_shape": [null, 14, 14, 480]}, "name": "block4c_expand_activation_DCNN_A", "inbound_nodes": [[["block4c_expand_bn_DCNN_A", 0, 0, {}]]]}, {"module": "keras.layers", "class_name": "Conv2D", "config": {"name": "Conv1_DCNN_B", "trainable": false, "dtype": "float32", "filters": 32, "kernel_size": [3, 3], "strides": [2, 2], "padding": "same", "data_format": "channels_last", "dilation_rate": [1, 1], "groups": 1, "activation": "linear", "use_bias": false, "kernel_initializer": {"module": "keras.initializers", "class_name": "GlorotUniform", "config": {"seed": null}, "registered_name": null}, "bias_initializer": {"module": "keras.initializers", "class_name": "Zeros", "config": {}, "registered_name": null}, "kernel_regularizer": null, "bias_regularizer": null, "activity_regularizer": null, "kernel_constraint": null, "bias_constraint": null}, "registered_name": null, "build_config": {"input_shape": [null, 224, 224, 3]}, "name": "Conv1_DCNN_B", "inbound_nodes": [[["input_1_DCNN_A_DCNN_B_DCNN_C_DCNN_A_DCNN_B_DCNN_C", 0, 0, {}]]]}, {"module": "keras.layers", "class_name": "DepthwiseConv2D", "config": {"name": "block4c_dwconv_DCNN_A", "trainable": false, "dtype": "float32", "kernel_size": [3, 3], "strides": [1, 1], "padding": "same", "data_format": "channels_last", "dilation_rate": [1, 1], "groups": 1, "activation": "linear", "use_bias": false, "bias_initializer": {"module": "keras.initializers", "class_name": "Zeros", "config": {}, "registered_name": null}, "bias_regularizer": null, "activity_regularizer": null, "bias_constraint": null, "depth_multiplier": 1, "depthwise_initializer": {"module": "keras.initializers", "class_name": "VarianceScaling", "config": {"scale": 2.0, "mode": "fan_out", "distribution": "truncated_normal", "seed": null}, "registered_name": null}, "depthwise_regularizer": null, "depthwise_constraint": null}, "registered_name": null, "build_config": {"input_shape": [null, 14, 14, 480]}, "name": "block4c_dwconv_DCNN_A", "inbound_nodes": [[["block4c_expand_activation_DCNN_A", 0, 0, {}]]]}, {"module": "keras.layers", "class_name": "BatchNormalization", "config": {"name": "bn_Conv1_DCNN_B", "trainable": false, "dtype": "float32", "axis": [3], "momentum": 0.999, "epsilon": 0.001, "center": true, "scale": true, "beta_initializer": {"module": "keras.initializers", "class_name": "Zeros", "config": {}, "registered_name": null}, "gamma_initializer": {"module": "keras.initializers", "class_name": "Ones", "config": {}, "registered_name": null}, "moving_mean_initializer": {"module": "keras.initializers", "class_name": "Zeros", "config": {}, "registered_name": null}, "moving_variance_initializer": {"module": "keras.initializers", "class_name": "Ones", "config": {}, "registered_name": null}, "beta_regularizer": null, "gamma_regularizer": null, "beta_constraint": null, "gamma_constraint": null}, "registered_name": null, "build_config": {"input_shape": [null, 112, 112, 32]}, "name": "bn_Conv1_DCNN_B", "inbound_nodes": [[["Conv1_DCNN_B", 0, 0, {}]]]}, {"module": "keras.layers", "class_name": "BatchNormalization", "config": {"name": "block4c_bn_DCNN_A", "trainable": false, "dtype": "float32", "axis": [3], "momentum": 0.99, "epsilon": 0.001, "center": true, "scale": true, "beta_initializer": {"module": "keras.initializers", "class_name": "Zeros", "config": {}, "registered_name": null}, "gamma_initializer": {"module": "keras.initializers", "class_name": "Ones", "config": {}, "registered_name": null}, "moving_mean_initializer": {"module": "keras.initializers", "class_name": "Zeros", "config": {}, "registered_name": null}, "moving_variance_initializer": {"module": "keras.initializers", "class_name": "Ones", "config": {}, "registered_name": null}, "beta_regularizer": null, "gamma_regularizer": null, "beta_constraint": null, "gamma_constraint": null}, "registered_name": null, "build_config": {"input_shape": [null, 14, 14, 480]}, "name": "block4c_bn_DCNN_A", "inbound_nodes": [[["block4c_dwconv_DCNN_A", 0, 0, {}]]]}, {"module": "keras.layers", "class_name": "ReLU", "config": {"name": "Conv1_relu_DCNN_B", "trainable": false, "dtype": "float32", "max_value": 6.0, "negative_slope": 0.0, "threshold": 0.0}, "registered_name": null, "build_config": {"input_shape": [null, 112, 112, 32]}, "name": "Conv1_relu_DCNN_B", "inbound_nodes": [[["bn_Conv1_DCNN_B", 0, 0, {}]]]}, {"module": "keras.layers", "class_name": "Activation", "config": {"name": "block4c_activation_DCNN_A", "trainable": false, "dtype": "float32", "activation": "swish"}, "registered_name": null, "build_config": {"input_shape": [null, 14, 14, 480]}, "name": "block4c_activation_DCNN_A", "inbound_nodes": [[["block4c_bn_DCNN_A", 0, 0, {}]]]}, {"module": "keras.layers", "class_name": "DepthwiseConv2D", "config": {"name": "expanded_conv_depthwise_DCNN_B", "trainable": false, "dtype": "float32", "kernel_size": [3, 3], "strides": [1, 1], "padding": "same", "data_format": "channels_last", "dilation_rate": [1, 1], "groups": 1, "activation": "linear", "use_bias": false, "bias_initializer": {"module": "keras.initializers", "class_name": "Zeros", "config": {}, "registered_name": null}, "bias_regularizer": null, "activity_regularizer": null, "bias_constraint": null, "depth_multiplier": 1, "depthwise_initializer": {"module": "keras.initializers", "class_name": "GlorotUniform", "config": {"seed": null}, "registered_name": null}, "depthwise_regularizer": null, "depthwise_constraint": null}, "registered_name": null, "build_config": {"input_shape": [null, 112, 112, 32]}, "name": "expanded_conv_depthwise_DCNN_B", "inbound_nodes": [[["Conv1_relu_DCNN_B", 0, 0, {}]]]}, {"module": "keras.layers", "class_name": "GlobalAveragePooling2D", "config": {"name": "block4c_se_squeeze_DCNN_A", "trainable": false, "dtype": "float32", "data_format": "channels_last", "keepdims": false}, "registered_name": null, "build_config": {"input_shape": [null, 14, 14, 480]}, "name": "block4c_se_squeeze_DCNN_A", "inbound_nodes": [[["block4c_activation_DCNN_A", 0, 0, {}]]]}, {"module": "keras.layers", "class_name": "BatchNormalization", "config": {"name": "expanded_conv_depthwise_BN_DCNN_B", "trainable": false, "dtype": "float32", "axis": [3], "momentum": 0.999, "epsilon": 0.001, "center": true, "scale": true, "beta_initializer": {"module": "keras.initializers", "class_name": "Zeros", "config": {}, "registered_name": null}, "gamma_initializer": {"module": "keras.initializers", "class_name": "Ones", "config": {}, "registered_name": null}, "moving_mean_initializer": {"module": "keras.initializers", "class_name": "Zeros", "config": {}, "registered_name": null}, "moving_variance_initializer": {"module": "keras.initializers", "class_name": "Ones", "config": {}, "registered_name": null}, "beta_regularizer": null, "gamma_regularizer": null, "beta_constraint": null, "gamma_constraint": null}, "registered_name": null, "build_config": {"input_shape": [null, 112, 112, 32]}, "name": "expanded_conv_depthwise_BN_DCNN_B", "inbound_nodes": [[["expanded_conv_depthwise_DCNN_B", 0, 0, {}]]]}, {"module": "keras.layers", "class_name": "Reshape", "config": {"name": "block4c_se_reshape_DCNN_A", "trainable": false, "dtype": "float32", "target_shape": [1, 1, 480]}, "registered_name": null, "build_config": {"input_shape": [null, 480]}, "name": "block4c_se_reshape_DCNN_A", "inbound_nodes": [[["block4c_se_squeeze_DCNN_A", 0, 0, {}]]]}, {"module": "keras.layers", "class_name": "ReLU", "config": {"name": "expanded_conv_depthwise_relu_DCNN_B", "trainable": false, "dtype": "float32", "max_value": 6.0, "negative_slope": 0.0, "threshold": 0.0}, "registered_name": null, "build_config": {"input_shape": [null, 112, 112, 32]}, "name": "expanded_conv_depthwise_relu_DCNN_B", "inbound_nodes": [[["expanded_conv_depthwise_BN_DCNN_B", 0, 0, {}]]]}, {"module": "keras.layers", "class_name": "Conv2D", "config": {"name": "block4c_se_reduce_DCNN_A", "trainable": false, "dtype": "float32", "filters": 20, "kernel_size": [1, 1], "strides": [1, 1], "padding": "same", "data_format": "channels_last", "dilation_rate": [1, 1], "groups": 1, "activation": "swish", "use_bias": true, "kernel_initializer": {"module": "keras.initializers", "class_name": "VarianceScaling", "config": {"scale": 2.0, "mode": "fan_out", "distribution": "truncated_normal", "seed": null}, "registered_name": null}, "bias_initializer": {"module": "keras.initializers", "class_name": "Zeros", "config": {}, "registered_name": null}, "kernel_regularizer": null, "bias_regularizer": null, "activity_regularizer": null, "kernel_constraint": null, "bias_constraint": null}, "registered_name": null, "build_config": {"input_shape": [null, 1, 1, 480]}, "name": "block4c_se_reduce_DCNN_A", "inbound_nodes": [[["block4c_se_reshape_DCNN_A", 0, 0, {}]]]}, {"module": "keras.layers", "class_name": "Conv2D", "config": {"name": "expanded_conv_project_DCNN_B", "trainable": false, "dtype": "float32", "filters": 16, "kernel_size": [1, 1], "strides": [1, 1], "padding": "same", "data_format": "channels_last", "dilation_rate": [1, 1], "groups": 1, "activation": "linear", "use_bias": false, "kernel_initializer": {"module": "keras.initializers", "class_name": "GlorotUniform", "config": {"seed": null}, "registered_name": null}, "bias_initializer": {"module": "keras.initializers", "class_name": "Zeros", "config": {}, "registered_name": null}, "kernel_regularizer": null, "bias_regularizer": null, "activity_regularizer": null, "kernel_constraint": null, "bias_constraint": null}, "registered_name": null, "build_config": {"input_shape": [null, 112, 112, 32]}, "name": "expanded_conv_project_DCNN_B", "inbound_nodes": [[["expanded_conv_depthwise_relu_DCNN_B", 0, 0, {}]]]}, {"module": "keras.layers", "class_name": "Conv2D", "config": {"name": "block4c_se_expand_DCNN_A", "trainable": false, "dtype": "float32", "filters": 480, "kernel_size": [1, 1], "strides": [1, 1], "padding": "same", "data_format": "channels_last", "dilation_rate": [1, 1], "groups": 1, "activation": "sigmoid", "use_bias": true, "kernel_initializer": {"module": "keras.initializers", "class_name": "VarianceScaling", "config": {"scale": 2.0, "mode": "fan_out", "distribution": "truncated_normal", "seed": null}, "registered_name": null}, "bias_initializer": {"module": "keras.initializers", "class_name": "Zeros", "config": {}, "registered_name": null}, "kernel_regularizer": null, "bias_regularizer": null, "activity_regularizer": null, "kernel_constraint": null, "bias_constraint": null}, "registered_name": null, "build_config": {"input_shape": [null, 1, 1, 20]}, "name": "block4c_se_expand_DCNN_A", "inbound_nodes": [[["block4c_se_reduce_DCNN_A", 0, 0, {}]]]}, {"module": "keras.layers", "class_name": "BatchNormalization", "config": {"name": "expanded_conv_project_BN_DCNN_B", "trainable": false, "dtype": "float32", "axis": [3], "momentum": 0.999, "epsilon": 0.001, "center": true, "scale": true, "beta_initializer": {"module": "keras.initializers", "class_name": "Zeros", "config": {}, "registered_name": null}, "gamma_initializer": {"module": "keras.initializers", "class_name": "Ones", "config": {}, "registered_name": null}, "moving_mean_initializer": {"module": "keras.initializers", "class_name": "Zeros", "config": {}, "registered_name": null}, "moving_variance_initializer": {"module": "keras.initializers", "class_name": "Ones", "config": {}, "registered_name": null}, "beta_regularizer": null, "gamma_regularizer": null, "beta_constraint": null, "gamma_constraint": null}, "registered_name": null, "build_config": {"input_shape": [null, 112, 112, 16]}, "name": "expanded_conv_project_BN_DCNN_B", "inbound_nodes": [[["expanded_conv_project_DCNN_B", 0, 0, {}]]]}, {"module": "keras.layers", "class_name": "Multiply", "config": {"name": "block4c_se_excite_DCNN_A", "trainable": false, "dtype": "float32"}, "registered_name": null, "build_config": {"input_shape": [[null, 14, 14, 480], [null, 1, 1, 480]]}, "name": "block4c_se_excite_DCNN_A", "inbound_nodes": [[["block4c_activation_DCNN_A", 0, 0, {}], ["block4c_se_expand_DCNN_A", 0, 0, {}]]]}, {"module": "keras.layers", "class_name": "Conv2D", "config": {"name": "block_1_expand_DCNN_B", "trainable": false, "dtype": "float32", "filters": 96, "kernel_size": [1, 1], "strides": [1, 1], "padding": "same", "data_format": "channels_last", "dilation_rate": [1, 1], "groups": 1, "activation": "linear", "use_bias": false, "kernel_initializer": {"module": "keras.initializers", "class_name": "GlorotUniform", "config": {"seed": null}, "registered_name": null}, "bias_initializer": {"module": "keras.initializers", "class_name": "Zeros", "config": {}, "registered_name": null}, "kernel_regularizer": null, "bias_regularizer": null, "activity_regularizer": null, "kernel_constraint": null, "bias_constraint": null}, "registered_name": null, "build_config": {"input_shape": [null, 112, 112, 16]}, "name": "block_1_expand_DCNN_B", "inbound_nodes": [[["expanded_conv_project_BN_DCNN_B", 0, 0, {}]]]}, {"module": "keras.layers", "class_name": "Conv2D", "config": {"name": "block4c_project_conv_DCNN_A", "trainable": false, "dtype": "float32", "filters": 80, "kernel_size": [1, 1], "strides": [1, 1], "padding": "same", "data_format": "channels_last", "dilation_rate": [1, 1], "groups": 1, "activation": "linear", "use_bias": false, "kernel_initializer": {"module": "keras.initializers", "class_name": "VarianceScaling", "config": {"scale": 2.0, "mode": "fan_out", "distribution": "truncated_normal", "seed": null}, "registered_name": null}, "bias_initializer": {"module": "keras.initializers", "class_name": "Zeros", "config": {}, "registered_name": null}, "kernel_regularizer": null, "bias_regularizer": null, "activity_regularizer": null, "kernel_constraint": null, "bias_constraint": null}, "registered_name": null, "build_config": {"input_shape": [null, 14, 14, 480]}, "name": "block4c_project_conv_DCNN_A", "inbound_nodes": [[["block4c_se_excite_DCNN_A", 0, 0, {}]]]}, {"module": "keras.layers", "class_name": "BatchNormalization", "config": {"name": "block_1_expand_BN_DCNN_B", "trainable": false, "dtype": "float32", "axis": [3], "momentum": 0.999, "epsilon": 0.001, "center": true, "scale": true, "beta_initializer": {"module": "keras.initializers", "class_name": "Zeros", "config": {}, "registered_name": null}, "gamma_initializer": {"module": "keras.initializers", "class_name": "Ones", "config": {}, "registered_name": null}, "moving_mean_initializer": {"module": "keras.initializers", "class_name": "Zeros", "config": {}, "registered_name": null}, "moving_variance_initializer": {"module": "keras.initializers", "class_name": "Ones", "config": {}, "registered_name": null}, "beta_regularizer": null, "gamma_regularizer": null, "beta_constraint": null, "gamma_constraint": null}, "registered_name": null, "build_config": {"input_shape": [null, 112, 112, 96]}, "name": "block_1_expand_BN_DCNN_B", "inbound_nodes": [[["block_1_expand_DCNN_B", 0, 0, {}]]]}, {"module": "keras.layers", "class_name": "BatchNormalization", "config": {"name": "block4c_project_bn_DCNN_A", "trainable": false, "dtype": "float32", "axis": [3], "momentum": 0.99, "epsilon": 0.001, "center": true, "scale": true, "beta_initializer": {"module": "keras.initializers", "class_name": "Zeros", "config": {}, "registered_name": null}, "gamma_initializer": {"module": "keras.initializers", "class_name": "Ones", "config": {}, "registered_name": null}, "moving_mean_initializer": {"module": "keras.initializers", "class_name": "Zeros", "config": {}, "registered_name": null}, "moving_variance_initializer": {"module": "keras.initializers", "class_name": "Ones", "config": {}, "registered_name": null}, "beta_regularizer": null, "gamma_regularizer": null, "beta_constraint": null, "gamma_constraint": null}, "registered_name": null, "build_config": {"input_shape": [null, 14, 14, 80]}, "name": "block4c_project_bn_DCNN_A", "inbound_nodes": [[["block4c_project_conv_DCNN_A", 0, 0, {}]]]}, {"module": "keras.layers", "class_name": "ReLU", "config": {"name": "block_1_expand_relu_DCNN_B", "trainable": false, "dtype": "float32", "max_value": 6.0, "negative_slope": 0.0, "threshold": 0.0}, "registered_name": null, "build_config": {"input_shape": [null, 112, 112, 96]}, "name": "block_1_expand_relu_DCNN_B", "inbound_nodes": [[["block_1_expand_BN_DCNN_B", 0, 0, {}]]]}, {"module": "keras.layers", "class_name": "Dropout", "config": {"name": "block4c_drop_DCNN_A", "trainable": false, "dtype": "float32", "rate": 0.08750000000000001, "noise_shape": [null, 1, 1, 1], "seed": null}, "registered_name": null, "build_config": {"input_shape": [null, 14, 14, 80]}, "name": "block4c_drop_DCNN_A", "inbound_nodes": [[["block4c_project_bn_DCNN_A", 0, 0, {}]]]}, {"module": "keras.layers", "class_name": "ZeroPadding2D", "config": {"name": "block_1_pad_DCNN_B", "trainable": false, "dtype": "float32", "padding": [[0, 1], [0, 1]], "data_format": "channels_last"}, "registered_name": null, "build_config": {"input_shape": [null, 112, 112, 96]}, "name": "block_1_pad_DCNN_B", "inbound_nodes": [[["block_1_expand_relu_DCNN_B", 0, 0, {}]]]}, {"module": "keras.layers", "class_name": "Add", "config": {"name": "block4c_add_DCNN_A", "trainable": false, "dtype": "float32"}, "registered_name": null, "build_config": {"input_shape": [[null, 14, 14, 80], [null, 14, 14, 80]]}, "name": "block4c_add_DCNN_A", "inbound_nodes": [[["block4c_drop_DCNN_A", 0, 0, {}], ["block4b_add_DCNN_A", 0, 0, {}]]]}, {"module": "keras.layers", "class_name": "DepthwiseConv2D", "config": {"name": "block_1_depthwise_DCNN_B", "trainable": false, "dtype": "float32", "kernel_size": [3, 3], "strides": [2, 2], "padding": "valid", "data_format": "channels_last", "dilation_rate": [1, 1], "groups": 1, "activation": "linear", "use_bias": false, "bias_initializer": {"module": "keras.initializers", "class_name": "Zeros", "config": {}, "registered_name": null}, "bias_regularizer": null, "activity_regularizer": null, "bias_constraint": null, "depth_multiplier": 1, "depthwise_initializer": {"module": "keras.initializers", "class_name": "GlorotUniform", "config": {"seed": null}, "registered_name": null}, "depthwise_regularizer": null, "depthwise_constraint": null}, "registered_name": null, "build_config": {"input_shape": [null, 113, 113, 96]}, "name": "block_1_depthwise_DCNN_B", "inbound_nodes": [[["block_1_pad_DCNN_B", 0, 0, {}]]]}, {"module": "keras.layers", "class_name": "Conv2D", "config": {"name": "block5a_expand_conv_DCNN_A", "trainable": false, "dtype": "float32", "filters": 480, "kernel_size": [1, 1], "strides": [1, 1], "padding": "same", "data_format": "channels_last", "dilation_rate": [1, 1], "groups": 1, "activation": "linear", "use_bias": false, "kernel_initializer": {"module": "keras.initializers", "class_name": "VarianceScaling", "config": {"scale": 2.0, "mode": "fan_out", "distribution": "truncated_normal", "seed": null}, "registered_name": null}, "bias_initializer": {"module": "keras.initializers", "class_name": "Zeros", "config": {}, "registered_name": null}, "kernel_regularizer": null, "bias_regularizer": null, "activity_regularizer": null, "kernel_constraint": null, "bias_constraint": null}, "registered_name": null, "build_config": {"input_shape": [null, 14, 14, 80]}, "name": "block5a_expand_conv_DCNN_A", "inbound_nodes": [[["block4c_add_DCNN_A", 0, 0, {}]]]}, {"module": "keras.layers", "class_name": "BatchNormalization", "config": {"name": "block_1_depthwise_BN_DCNN_B", "trainable": false, "dtype": "float32", "axis": [3], "momentum": 0.999, "epsilon": 0.001, "center": true, "scale": true, "beta_initializer": {"module": "keras.initializers", "class_name": "Zeros", "config": {}, "registered_name": null}, "gamma_initializer": {"module": "keras.initializers", "class_name": "Ones", "config": {}, "registered_name": null}, "moving_mean_initializer": {"module": "keras.initializers", "class_name": "Zeros", "config": {}, "registered_name": null}, "moving_variance_initializer": {"module": "keras.initializers", "class_name": "Ones", "config": {}, "registered_name": null}, "beta_regularizer": null, "gamma_regularizer": null, "beta_constraint": null, "gamma_constraint": null}, "registered_name": null, "build_config": {"input_shape": [null, 56, 56, 96]}, "name": "block_1_depthwise_BN_DCNN_B", "inbound_nodes": [[["block_1_depthwise_DCNN_B", 0, 0, {}]]]}, {"module": "keras.layers", "class_name": "BatchNormalization", "config": {"name": "block5a_expand_bn_DCNN_A", "trainable": false, "dtype": "float32", "axis": [3], "momentum": 0.99, "epsilon": 0.001, "center": true, "scale": true, "beta_initializer": {"module": "keras.initializers", "class_name": "Zeros", "config": {}, "registered_name": null}, "gamma_initializer": {"module": "keras.initializers", "class_name": "Ones", "config": {}, "registered_name": null}, "moving_mean_initializer": {"module": "keras.initializers", "class_name": "Zeros", "config": {}, "registered_name": null}, "moving_variance_initializer": {"module": "keras.initializers", "class_name": "Ones", "config": {}, "registered_name": null}, "beta_regularizer": null, "gamma_regularizer": null, "beta_constraint": null, "gamma_constraint": null}, "registered_name": null, "build_config": {"input_shape": [null, 14, 14, 480]}, "name": "block5a_expand_bn_DCNN_A", "inbound_nodes": [[["block5a_expand_conv_DCNN_A", 0, 0, {}]]]}, {"module": "keras.layers", "class_name": "ReLU", "config": {"name": "block_1_depthwise_relu_DCNN_B", "trainable": false, "dtype": "float32", "max_value": 6.0, "negative_slope": 0.0, "threshold": 0.0}, "registered_name": null, "build_config": {"input_shape": [null, 56, 56, 96]}, "name": "block_1_depthwise_relu_DCNN_B", "inbound_nodes": [[["block_1_depthwise_BN_DCNN_B", 0, 0, {}]]]}, {"module": "keras.layers", "class_name": "Activation", "config": {"name": "block5a_expand_activation_DCNN_A", "trainable": false, "dtype": "float32", "activation": "swish"}, "registered_name": null, "build_config": {"input_shape": [null, 14, 14, 480]}, "name": "block5a_expand_activation_DCNN_A", "inbound_nodes": [[["block5a_expand_bn_DCNN_A", 0, 0, {}]]]}, {"module": "keras.layers", "class_name": "Conv2D", "config": {"name": "block_1_project_DCNN_B", "trainable": false, "dtype": "float32", "filters": 24, "kernel_size": [1, 1], "strides": [1, 1], "padding": "same", "data_format": "channels_last", "dilation_rate": [1, 1], "groups": 1, "activation": "linear", "use_bias": false, "kernel_initializer": {"module": "keras.initializers", "class_name": "GlorotUniform", "config": {"seed": null}, "registered_name": null}, "bias_initializer": {"module": "keras.initializers", "class_name": "Zeros", "config": {}, "registered_name": null}, "kernel_regularizer": null, "bias_regularizer": null, "activity_regularizer": null, "kernel_constraint": null, "bias_constraint": null}, "registered_name": null, "build_config": {"input_shape": [null, 56, 56, 96]}, "name": "block_1_project_DCNN_B", "inbound_nodes": [[["block_1_depthwise_relu_DCNN_B", 0, 0, {}]]]}, {"module": "keras.layers", "class_name": "DepthwiseConv2D", "config": {"name": "block5a_dwconv_DCNN_A", "trainable": false, "dtype": "float32", "kernel_size": [5, 5], "strides": [1, 1], "padding": "same", "data_format": "channels_last", "dilation_rate": [1, 1], "groups": 1, "activation": "linear", "use_bias": false, "bias_initializer": {"module": "keras.initializers", "class_name": "Zeros", "config": {}, "registered_name": null}, "bias_regularizer": null, "activity_regularizer": null, "bias_constraint": null, "depth_multiplier": 1, "depthwise_initializer": {"module": "keras.initializers", "class_name": "VarianceScaling", "config": {"scale": 2.0, "mode": "fan_out", "distribution": "truncated_normal", "seed": null}, "registered_name": null}, "depthwise_regularizer": null, "depthwise_constraint": null}, "registered_name": null, "build_config": {"input_shape": [null, 14, 14, 480]}, "name": "block5a_dwconv_DCNN_A", "inbound_nodes": [[["block5a_expand_activation_DCNN_A", 0, 0, {}]]]}, {"module": "keras.layers", "class_name": "BatchNormalization", "config": {"name": "block_1_project_BN_DCNN_B", "trainable": false, "dtype": "float32", "axis": [3], "momentum": 0.999, "epsilon": 0.001, "center": true, "scale": true, "beta_initializer": {"module": "keras.initializers", "class_name": "Zeros", "config": {}, "registered_name": null}, "gamma_initializer": {"module": "keras.initializers", "class_name": "Ones", "config": {}, "registered_name": null}, "moving_mean_initializer": {"module": "keras.initializers", "class_name": "Zeros", "config": {}, "registered_name": null}, "moving_variance_initializer": {"module": "keras.initializers", "class_name": "Ones", "config": {}, "registered_name": null}, "beta_regularizer": null, "gamma_regularizer": null, "beta_constraint": null, "gamma_constraint": null}, "registered_name": null, "build_config": {"input_shape": [null, 56, 56, 24]}, "name": "block_1_project_BN_DCNN_B", "inbound_nodes": [[["block_1_project_DCNN_B", 0, 0, {}]]]}, {"module": "keras.layers", "class_name": "BatchNormalization", "config": {"name": "block5a_bn_DCNN_A", "trainable": false, "dtype": "float32", "axis": [3], "momentum": 0.99, "epsilon": 0.001, "center": true, "scale": true, "beta_initializer": {"module": "keras.initializers", "class_name": "Zeros", "config": {}, "registered_name": null}, "gamma_initializer": {"module": "keras.initializers", "class_name": "Ones", "config": {}, "registered_name": null}, "moving_mean_initializer": {"module": "keras.initializers", "class_name": "Zeros", "config": {}, "registered_name": null}, "moving_variance_initializer": {"module": "keras.initializers", "class_name": "Ones", "config": {}, "registered_name": null}, "beta_regularizer": null, "gamma_regularizer": null, "beta_constraint": null, "gamma_constraint": null}, "registered_name": null, "build_config": {"input_shape": [null, 14, 14, 480]}, "name": "block5a_bn_DCNN_A", "inbound_nodes": [[["block5a_dwconv_DCNN_A", 0, 0, {}]]]}, {"module": "keras.layers", "class_name": "Conv2D", "config": {"name": "block_2_expand_DCNN_B", "trainable": false, "dtype": "float32", "filters": 144, "kernel_size": [1, 1], "strides": [1, 1], "padding": "same", "data_format": "channels_last", "dilation_rate": [1, 1], "groups": 1, "activation": "linear", "use_bias": false, "kernel_initializer": {"module": "keras.initializers", "class_name": "GlorotUniform", "config": {"seed": null}, "registered_name": null}, "bias_initializer": {"module": "keras.initializers", "class_name": "Zeros", "config": {}, "registered_name": null}, "kernel_regularizer": null, "bias_regularizer": null, "activity_regularizer": null, "kernel_constraint": null, "bias_constraint": null}, "registered_name": null, "build_config": {"input_shape": [null, 56, 56, 24]}, "name": "block_2_expand_DCNN_B", "inbound_nodes": [[["block_1_project_BN_DCNN_B", 0, 0, {}]]]}, {"module": "keras.layers", "class_name": "Activation", "config": {"name": "block5a_activation_DCNN_A", "trainable": false, "dtype": "float32", "activation": "swish"}, "registered_name": null, "build_config": {"input_shape": [null, 14, 14, 480]}, "name": "block5a_activation_DCNN_A", "inbound_nodes": [[["block5a_bn_DCNN_A", 0, 0, {}]]]}, {"module": "keras.layers", "class_name": "BatchNormalization", "config": {"name": "block_2_expand_BN_DCNN_B", "trainable": false, "dtype": "float32", "axis": [3], "momentum": 0.999, "epsilon": 0.001, "center": true, "scale": true, "beta_initializer": {"module": "keras.initializers", "class_name": "Zeros", "config": {}, "registered_name": null}, "gamma_initializer": {"module": "keras.initializers", "class_name": "Ones", "config": {}, "registered_name": null}, "moving_mean_initializer": {"module": "keras.initializers", "class_name": "Zeros", "config": {}, "registered_name": null}, "moving_variance_initializer": {"module": "keras.initializers", "class_name": "Ones", "config": {}, "registered_name": null}, "beta_regularizer": null, "gamma_regularizer": null, "beta_constraint": null, "gamma_constraint": null}, "registered_name": null, "build_config": {"input_shape": [null, 56, 56, 144]}, "name": "block_2_expand_BN_DCNN_B", "inbound_nodes": [[["block_2_expand_DCNN_B", 0, 0, {}]]]}, {"module": "keras.layers", "class_name": "GlobalAveragePooling2D", "config": {"name": "block5a_se_squeeze_DCNN_A", "trainable": false, "dtype": "float32", "data_format": "channels_last", "keepdims": false}, "registered_name": null, "build_config": {"input_shape": [null, 14, 14, 480]}, "name": "block5a_se_squeeze_DCNN_A", "inbound_nodes": [[["block5a_activation_DCNN_A", 0, 0, {}]]]}, {"module": "keras.layers", "class_name": "ReLU", "config": {"name": "block_2_expand_relu_DCNN_B", "trainable": false, "dtype": "float32", "max_value": 6.0, "negative_slope": 0.0, "threshold": 0.0}, "registered_name": null, "build_config": {"input_shape": [null, 56, 56, 144]}, "name": "block_2_expand_relu_DCNN_B", "inbound_nodes": [[["block_2_expand_BN_DCNN_B", 0, 0, {}]]]}, {"module": "keras.layers", "class_name": "Reshape", "config": {"name": "block5a_se_reshape_DCNN_A", "trainable": false, "dtype": "float32", "target_shape": [1, 1, 480]}, "registered_name": null, "build_config": {"input_shape": [null, 480]}, "name": "block5a_se_reshape_DCNN_A", "inbound_nodes": [[["block5a_se_squeeze_DCNN_A", 0, 0, {}]]]}, {"module": "keras.layers", "class_name": "DepthwiseConv2D", "config": {"name": "block_2_depthwise_DCNN_B", "trainable": false, "dtype": "float32", "kernel_size": [3, 3], "strides": [1, 1], "padding": "same", "data_format": "channels_last", "dilation_rate": [1, 1], "groups": 1, "activation": "linear", "use_bias": false, "bias_initializer": {"module": "keras.initializers", "class_name": "Zeros", "config": {}, "registered_name": null}, "bias_regularizer": null, "activity_regularizer": null, "bias_constraint": null, "depth_multiplier": 1, "depthwise_initializer": {"module": "keras.initializers", "class_name": "GlorotUniform", "config": {"seed": null}, "registered_name": null}, "depthwise_regularizer": null, "depthwise_constraint": null}, "registered_name": null, "build_config": {"input_shape": [null, 56, 56, 144]}, "name": "block_2_depthwise_DCNN_B", "inbound_nodes": [[["block_2_expand_relu_DCNN_B", 0, 0, {}]]]}, {"module": "keras.layers", "class_name": "Conv2D", "config": {"name": "block5a_se_reduce_DCNN_A", "trainable": false, "dtype": "float32", "filters": 20, "kernel_size": [1, 1], "strides": [1, 1], "padding": "same", "data_format": "channels_last", "dilation_rate": [1, 1], "groups": 1, "activation": "swish", "use_bias": true, "kernel_initializer": {"module": "keras.initializers", "class_name": "VarianceScaling", "config": {"scale": 2.0, "mode": "fan_out", "distribution": "truncated_normal", "seed": null}, "registered_name": null}, "bias_initializer": {"module": "keras.initializers", "class_name": "Zeros", "config": {}, "registered_name": null}, "kernel_regularizer": null, "bias_regularizer": null, "activity_regularizer": null, "kernel_constraint": null, "bias_constraint": null}, "registered_name": null, "build_config": {"input_shape": [null, 1, 1, 480]}, "name": "block5a_se_reduce_DCNN_A", "inbound_nodes": [[["block5a_se_reshape_DCNN_A", 0, 0, {}]]]}, {"module": "keras.layers", "class_name": "BatchNormalization", "config": {"name": "block_2_depthwise_BN_DCNN_B", "trainable": false, "dtype": "float32", "axis": [3], "momentum": 0.999, "epsilon": 0.001, "center": true, "scale": true, "beta_initializer": {"module": "keras.initializers", "class_name": "Zeros", "config": {}, "registered_name": null}, "gamma_initializer": {"module": "keras.initializers", "class_name": "Ones", "config": {}, "registered_name": null}, "moving_mean_initializer": {"module": "keras.initializers", "class_name": "Zeros", "config": {}, "registered_name": null}, "moving_variance_initializer": {"module": "keras.initializers", "class_name": "Ones", "config": {}, "registered_name": null}, "beta_regularizer": null, "gamma_regularizer": null, "beta_constraint": null, "gamma_constraint": null}, "registered_name": null, "build_config": {"input_shape": [null, 56, 56, 144]}, "name": "block_2_depthwise_BN_DCNN_B", "inbound_nodes": [[["block_2_depthwise_DCNN_B", 0, 0, {}]]]}, {"module": "keras.layers", "class_name": "Conv2D", "config": {"name": "block5a_se_expand_DCNN_A", "trainable": false, "dtype": "float32", "filters": 480, "kernel_size": [1, 1], "strides": [1, 1], "padding": "same", "data_format": "channels_last", "dilation_rate": [1, 1], "groups": 1, "activation": "sigmoid", "use_bias": true, "kernel_initializer": {"module": "keras.initializers", "class_name": "VarianceScaling", "config": {"scale": 2.0, "mode": "fan_out", "distribution": "truncated_normal", "seed": null}, "registered_name": null}, "bias_initializer": {"module": "keras.initializers", "class_name": "Zeros", "config": {}, "registered_name": null}, "kernel_regularizer": null, "bias_regularizer": null, "activity_regularizer": null, "kernel_constraint": null, "bias_constraint": null}, "registered_name": null, "build_config": {"input_shape": [null, 1, 1, 20]}, "name": "block5a_se_expand_DCNN_A", "inbound_nodes": [[["block5a_se_reduce_DCNN_A", 0, 0, {}]]]}, {"module": "keras.layers", "class_name": "ReLU", "config": {"name": "block_2_depthwise_relu_DCNN_B", "trainable": false, "dtype": "float32", "max_value": 6.0, "negative_slope": 0.0, "threshold": 0.0}, "registered_name": null, "build_config": {"input_shape": [null, 56, 56, 144]}, "name": "block_2_depthwise_relu_DCNN_B", "inbound_nodes": [[["block_2_depthwise_BN_DCNN_B", 0, 0, {}]]]}, {"module": "keras.layers", "class_name": "Multiply", "config": {"name": "block5a_se_excite_DCNN_A", "trainable": false, "dtype": "float32"}, "registered_name": null, "build_config": {"input_shape": [[null, 14, 14, 480], [null, 1, 1, 480]]}, "name": "block5a_se_excite_DCNN_A", "inbound_nodes": [[["block5a_activation_DCNN_A", 0, 0, {}], ["block5a_se_expand_DCNN_A", 0, 0, {}]]]}, {"module": "keras.layers", "class_name": "Conv2D", "config": {"name": "block_2_project_DCNN_B", "trainable": false, "dtype": "float32", "filters": 24, "kernel_size": [1, 1], "strides": [1, 1], "padding": "same", "data_format": "channels_last", "dilation_rate": [1, 1], "groups": 1, "activation": "linear", "use_bias": false, "kernel_initializer": {"module": "keras.initializers", "class_name": "GlorotUniform", "config": {"seed": null}, "registered_name": null}, "bias_initializer": {"module": "keras.initializers", "class_name": "Zeros", "config": {}, "registered_name": null}, "kernel_regularizer": null, "bias_regularizer": null, "activity_regularizer": null, "kernel_constraint": null, "bias_constraint": null}, "registered_name": null, "build_config": {"input_shape": [null, 56, 56, 144]}, "name": "block_2_project_DCNN_B", "inbound_nodes": [[["block_2_depthwise_relu_DCNN_B", 0, 0, {}]]]}, {"module": "keras.layers", "class_name": "Conv2D", "config": {"name": "block5a_project_conv_DCNN_A", "trainable": false, "dtype": "float32", "filters": 112, "kernel_size": [1, 1], "strides": [1, 1], "padding": "same", "data_format": "channels_last", "dilation_rate": [1, 1], "groups": 1, "activation": "linear", "use_bias": false, "kernel_initializer": {"module": "keras.initializers", "class_name": "VarianceScaling", "config": {"scale": 2.0, "mode": "fan_out", "distribution": "truncated_normal", "seed": null}, "registered_name": null}, "bias_initializer": {"module": "keras.initializers", "class_name": "Zeros", "config": {}, "registered_name": null}, "kernel_regularizer": null, "bias_regularizer": null, "activity_regularizer": null, "kernel_constraint": null, "bias_constraint": null}, "registered_name": null, "build_config": {"input_shape": [null, 14, 14, 480]}, "name": "block5a_project_conv_DCNN_A", "inbound_nodes": [[["block5a_se_excite_DCNN_A", 0, 0, {}]]]}, {"module": "keras.layers", "class_name": "BatchNormalization", "config": {"name": "block_2_project_BN_DCNN_B", "trainable": false, "dtype": "float32", "axis": [3], "momentum": 0.999, "epsilon": 0.001, "center": true, "scale": true, "beta_initializer": {"module": "keras.initializers", "class_name": "Zeros", "config": {}, "registered_name": null}, "gamma_initializer": {"module": "keras.initializers", "class_name": "Ones", "config": {}, "registered_name": null}, "moving_mean_initializer": {"module": "keras.initializers", "class_name": "Zeros", "config": {}, "registered_name": null}, "moving_variance_initializer": {"module": "keras.initializers", "class_name": "Ones", "config": {}, "registered_name": null}, "beta_regularizer": null, "gamma_regularizer": null, "beta_constraint": null, "gamma_constraint": null}, "registered_name": null, "build_config": {"input_shape": [null, 56, 56, 24]}, "name": "block_2_project_BN_DCNN_B", "inbound_nodes": [[["block_2_project_DCNN_B", 0, 0, {}]]]}, {"module": "keras.layers", "class_name": "BatchNormalization", "config": {"name": "block5a_project_bn_DCNN_A", "trainable": false, "dtype": "float32", "axis": [3], "momentum": 0.99, "epsilon": 0.001, "center": true, "scale": true, "beta_initializer": {"module": "keras.initializers", "class_name": "Zeros", "config": {}, "registered_name": null}, "gamma_initializer": {"module": "keras.initializers", "class_name": "Ones", "config": {}, "registered_name": null}, "moving_mean_initializer": {"module": "keras.initializers", "class_name": "Zeros", "config": {}, "registered_name": null}, "moving_variance_initializer": {"module": "keras.initializers", "class_name": "Ones", "config": {}, "registered_name": null}, "beta_regularizer": null, "gamma_regularizer": null, "beta_constraint": null, "gamma_constraint": null}, "registered_name": null, "build_config": {"input_shape": [null, 14, 14, 112]}, "name": "block5a_project_bn_DCNN_A", "inbound_nodes": [[["block5a_project_conv_DCNN_A", 0, 0, {}]]]}, {"module": "keras.layers", "class_name": "Add", "config": {"name": "block_2_add_DCNN_B", "trainable": false, "dtype": "float32"}, "registered_name": null, "build_config": {"input_shape": [[null, 56, 56, 24], [null, 56, 56, 24]]}, "name": "block_2_add_DCNN_B", "inbound_nodes": [[["block_1_project_BN_DCNN_B", 0, 0, {}], ["block_2_project_BN_DCNN_B", 0, 0, {}]]]}, {"module": "keras.layers", "class_name": "Conv2D", "config": {"name": "block5b_expand_conv_DCNN_A", "trainable": false, "dtype": "float32", "filters": 672, "kernel_size": [1, 1], "strides": [1, 1], "padding": "same", "data_format": "channels_last", "dilation_rate": [1, 1], "groups": 1, "activation": "linear", "use_bias": false, "kernel_initializer": {"module": "keras.initializers", "class_name": "VarianceScaling", "config": {"scale": 2.0, "mode": "fan_out", "distribution": "truncated_normal", "seed": null}, "registered_name": null}, "bias_initializer": {"module": "keras.initializers", "class_name": "Zeros", "config": {}, "registered_name": null}, "kernel_regularizer": null, "bias_regularizer": null, "activity_regularizer": null, "kernel_constraint": null, "bias_constraint": null}, "registered_name": null, "build_config": {"input_shape": [null, 14, 14, 112]}, "name": "block5b_expand_conv_DCNN_A", "inbound_nodes": [[["block5a_project_bn_DCNN_A", 0, 0, {}]]]}, {"module": "keras.layers", "class_name": "Conv2D", "config": {"name": "block_3_expand_DCNN_B", "trainable": false, "dtype": "float32", "filters": 144, "kernel_size": [1, 1], "strides": [1, 1], "padding": "same", "data_format": "channels_last", "dilation_rate": [1, 1], "groups": 1, "activation": "linear", "use_bias": false, "kernel_initializer": {"module": "keras.initializers", "class_name": "GlorotUniform", "config": {"seed": null}, "registered_name": null}, "bias_initializer": {"module": "keras.initializers", "class_name": "Zeros", "config": {}, "registered_name": null}, "kernel_regularizer": null, "bias_regularizer": null, "activity_regularizer": null, "kernel_constraint": null, "bias_constraint": null}, "registered_name": null, "build_config": {"input_shape": [null, 56, 56, 24]}, "name": "block_3_expand_DCNN_B", "inbound_nodes": [[["block_2_add_DCNN_B", 0, 0, {}]]]}, {"module": "keras.layers", "class_name": "BatchNormalization", "config": {"name": "block5b_expand_bn_DCNN_A", "trainable": false, "dtype": "float32", "axis": [3], "momentum": 0.99, "epsilon": 0.001, "center": true, "scale": true, "beta_initializer": {"module": "keras.initializers", "class_name": "Zeros", "config": {}, "registered_name": null}, "gamma_initializer": {"module": "keras.initializers", "class_name": "Ones", "config": {}, "registered_name": null}, "moving_mean_initializer": {"module": "keras.initializers", "class_name": "Zeros", "config": {}, "registered_name": null}, "moving_variance_initializer": {"module": "keras.initializers", "class_name": "Ones", "config": {}, "registered_name": null}, "beta_regularizer": null, "gamma_regularizer": null, "beta_constraint": null, "gamma_constraint": null}, "registered_name": null, "build_config": {"input_shape": [null, 14, 14, 672]}, "name": "block5b_expand_bn_DCNN_A", "inbound_nodes": [[["block5b_expand_conv_DCNN_A", 0, 0, {}]]]}, {"module": "keras.layers", "class_name": "BatchNormalization", "config": {"name": "block_3_expand_BN_DCNN_B", "trainable": false, "dtype": "float32", "axis": [3], "momentum": 0.999, "epsilon": 0.001, "center": true, "scale": true, "beta_initializer": {"module": "keras.initializers", "class_name": "Zeros", "config": {}, "registered_name": null}, "gamma_initializer": {"module": "keras.initializers", "class_name": "Ones", "config": {}, "registered_name": null}, "moving_mean_initializer": {"module": "keras.initializers", "class_name": "Zeros", "config": {}, "registered_name": null}, "moving_variance_initializer": {"module": "keras.initializers", "class_name": "Ones", "config": {}, "registered_name": null}, "beta_regularizer": null, "gamma_regularizer": null, "beta_constraint": null, "gamma_constraint": null}, "registered_name": null, "build_config": {"input_shape": [null, 56, 56, 144]}, "name": "block_3_expand_BN_DCNN_B", "inbound_nodes": [[["block_3_expand_DCNN_B", 0, 0, {}]]]}, {"module": "keras.layers", "class_name": "Activation", "config": {"name": "block5b_expand_activation_DCNN_A", "trainable": false, "dtype": "float32", "activation": "swish"}, "registered_name": null, "build_config": {"input_shape": [null, 14, 14, 672]}, "name": "block5b_expand_activation_DCNN_A", "inbound_nodes": [[["block5b_expand_bn_DCNN_A", 0, 0, {}]]]}, {"module": "keras.layers", "class_name": "ReLU", "config": {"name": "block_3_expand_relu_DCNN_B", "trainable": false, "dtype": "float32", "max_value": 6.0, "negative_slope": 0.0, "threshold": 0.0}, "registered_name": null, "build_config": {"input_shape": [null, 56, 56, 144]}, "name": "block_3_expand_relu_DCNN_B", "inbound_nodes": [[["block_3_expand_BN_DCNN_B", 0, 0, {}]]]}, {"module": "keras.layers", "class_name": "DepthwiseConv2D", "config": {"name": "block5b_dwconv_DCNN_A", "trainable": false, "dtype": "float32", "kernel_size": [5, 5], "strides": [1, 1], "padding": "same", "data_format": "channels_last", "dilation_rate": [1, 1], "groups": 1, "activation": "linear", "use_bias": false, "bias_initializer": {"module": "keras.initializers", "class_name": "Zeros", "config": {}, "registered_name": null}, "bias_regularizer": null, "activity_regularizer": null, "bias_constraint": null, "depth_multiplier": 1, "depthwise_initializer": {"module": "keras.initializers", "class_name": "VarianceScaling", "config": {"scale": 2.0, "mode": "fan_out", "distribution": "truncated_normal", "seed": null}, "registered_name": null}, "depthwise_regularizer": null, "depthwise_constraint": null}, "registered_name": null, "build_config": {"input_shape": [null, 14, 14, 672]}, "name": "block5b_dwconv_DCNN_A", "inbound_nodes": [[["block5b_expand_activation_DCNN_A", 0, 0, {}]]]}, {"module": "keras.layers", "class_name": "ZeroPadding2D", "config": {"name": "block_3_pad_DCNN_B", "trainable": false, "dtype": "float32", "padding": [[0, 1], [0, 1]], "data_format": "channels_last"}, "registered_name": null, "build_config": {"input_shape": [null, 56, 56, 144]}, "name": "block_3_pad_DCNN_B", "inbound_nodes": [[["block_3_expand_relu_DCNN_B", 0, 0, {}]]]}, {"module": "keras.layers", "class_name": "BatchNormalization", "config": {"name": "block5b_bn_DCNN_A", "trainable": false, "dtype": "float32", "axis": [3], "momentum": 0.99, "epsilon": 0.001, "center": true, "scale": true, "beta_initializer": {"module": "keras.initializers", "class_name": "Zeros", "config": {}, "registered_name": null}, "gamma_initializer": {"module": "keras.initializers", "class_name": "Ones", "config": {}, "registered_name": null}, "moving_mean_initializer": {"module": "keras.initializers", "class_name": "Zeros", "config": {}, "registered_name": null}, "moving_variance_initializer": {"module": "keras.initializers", "class_name": "Ones", "config": {}, "registered_name": null}, "beta_regularizer": null, "gamma_regularizer": null, "beta_constraint": null, "gamma_constraint": null}, "registered_name": null, "build_config": {"input_shape": [null, 14, 14, 672]}, "name": "block5b_bn_DCNN_A", "inbound_nodes": [[["block5b_dwconv_DCNN_A", 0, 0, {}]]]}, {"module": "keras.layers", "class_name": "DepthwiseConv2D", "config": {"name": "block_3_depthwise_DCNN_B", "trainable": false, "dtype": "float32", "kernel_size": [3, 3], "strides": [2, 2], "padding": "valid", "data_format": "channels_last", "dilation_rate": [1, 1], "groups": 1, "activation": "linear", "use_bias": false, "bias_initializer": {"module": "keras.initializers", "class_name": "Zeros", "config": {}, "registered_name": null}, "bias_regularizer": null, "activity_regularizer": null, "bias_constraint": null, "depth_multiplier": 1, "depthwise_initializer": {"module": "keras.initializers", "class_name": "GlorotUniform", "config": {"seed": null}, "registered_name": null}, "depthwise_regularizer": null, "depthwise_constraint": null}, "registered_name": null, "build_config": {"input_shape": [null, 57, 57, 144]}, "name": "block_3_depthwise_DCNN_B", "inbound_nodes": [[["block_3_pad_DCNN_B", 0, 0, {}]]]}, {"module": "keras.layers", "class_name": "Activation", "config": {"name": "block5b_activation_DCNN_A", "trainable": false, "dtype": "float32", "activation": "swish"}, "registered_name": null, "build_config": {"input_shape": [null, 14, 14, 672]}, "name": "block5b_activation_DCNN_A", "inbound_nodes": [[["block5b_bn_DCNN_A", 0, 0, {}]]]}, {"module": "keras.layers", "class_name": "BatchNormalization", "config": {"name": "block_3_depthwise_BN_DCNN_B", "trainable": false, "dtype": "float32", "axis": [3], "momentum": 0.999, "epsilon": 0.001, "center": true, "scale": true, "beta_initializer": {"module": "keras.initializers", "class_name": "Zeros", "config": {}, "registered_name": null}, "gamma_initializer": {"module": "keras.initializers", "class_name": "Ones", "config": {}, "registered_name": null}, "moving_mean_initializer": {"module": "keras.initializers", "class_name": "Zeros", "config": {}, "registered_name": null}, "moving_variance_initializer": {"module": "keras.initializers", "class_name": "Ones", "config": {}, "registered_name": null}, "beta_regularizer": null, "gamma_regularizer": null, "beta_constraint": null, "gamma_constraint": null}, "registered_name": null, "build_config": {"input_shape": [null, 28, 28, 144]}, "name": "block_3_depthwise_BN_DCNN_B", "inbound_nodes": [[["block_3_depthwise_DCNN_B", 0, 0, {}]]]}, {"module": "keras.layers", "class_name": "GlobalAveragePooling2D", "config": {"name": "block5b_se_squeeze_DCNN_A", "trainable": false, "dtype": "float32", "data_format": "channels_last", "keepdims": false}, "registered_name": null, "build_config": {"input_shape": [null, 14, 14, 672]}, "name": "block5b_se_squeeze_DCNN_A", "inbound_nodes": [[["block5b_activation_DCNN_A", 0, 0, {}]]]}, {"module": "keras.layers", "class_name": "ReLU", "config": {"name": "block_3_depthwise_relu_DCNN_B", "trainable": false, "dtype": "float32", "max_value": 6.0, "negative_slope": 0.0, "threshold": 0.0}, "registered_name": null, "build_config": {"input_shape": [null, 28, 28, 144]}, "name": "block_3_depthwise_relu_DCNN_B", "inbound_nodes": [[["block_3_depthwise_BN_DCNN_B", 0, 0, {}]]]}, {"module": "keras.layers", "class_name": "Reshape", "config": {"name": "block5b_se_reshape_DCNN_A", "trainable": false, "dtype": "float32", "target_shape": [1, 1, 672]}, "registered_name": null, "build_config": {"input_shape": [null, 672]}, "name": "block5b_se_reshape_DCNN_A", "inbound_nodes": [[["block5b_se_squeeze_DCNN_A", 0, 0, {}]]]}, {"module": "keras.layers", "class_name": "Conv2D", "config": {"name": "block_3_project_DCNN_B", "trainable": false, "dtype": "float32", "filters": 32, "kernel_size": [1, 1], "strides": [1, 1], "padding": "same", "data_format": "channels_last", "dilation_rate": [1, 1], "groups": 1, "activation": "linear", "use_bias": false, "kernel_initializer": {"module": "keras.initializers", "class_name": "GlorotUniform", "config": {"seed": null}, "registered_name": null}, "bias_initializer": {"module": "keras.initializers", "class_name": "Zeros", "config": {}, "registered_name": null}, "kernel_regularizer": null, "bias_regularizer": null, "activity_regularizer": null, "kernel_constraint": null, "bias_constraint": null}, "registered_name": null, "build_config": {"input_shape": [null, 28, 28, 144]}, "name": "block_3_project_DCNN_B", "inbound_nodes": [[["block_3_depthwise_relu_DCNN_B", 0, 0, {}]]]}, {"module": "keras.layers", "class_name": "Conv2D", "config": {"name": "block5b_se_reduce_DCNN_A", "trainable": false, "dtype": "float32", "filters": 28, "kernel_size": [1, 1], "strides": [1, 1], "padding": "same", "data_format": "channels_last", "dilation_rate": [1, 1], "groups": 1, "activation": "swish", "use_bias": true, "kernel_initializer": {"module": "keras.initializers", "class_name": "VarianceScaling", "config": {"scale": 2.0, "mode": "fan_out", "distribution": "truncated_normal", "seed": null}, "registered_name": null}, "bias_initializer": {"module": "keras.initializers", "class_name": "Zeros", "config": {}, "registered_name": null}, "kernel_regularizer": null, "bias_regularizer": null, "activity_regularizer": null, "kernel_constraint": null, "bias_constraint": null}, "registered_name": null, "build_config": {"input_shape": [null, 1, 1, 672]}, "name": "block5b_se_reduce_DCNN_A", "inbound_nodes": [[["block5b_se_reshape_DCNN_A", 0, 0, {}]]]}, {"module": "keras.layers", "class_name": "BatchNormalization", "config": {"name": "block_3_project_BN_DCNN_B", "trainable": false, "dtype": "float32", "axis": [3], "momentum": 0.999, "epsilon": 0.001, "center": true, "scale": true, "beta_initializer": {"module": "keras.initializers", "class_name": "Zeros", "config": {}, "registered_name": null}, "gamma_initializer": {"module": "keras.initializers", "class_name": "Ones", "config": {}, "registered_name": null}, "moving_mean_initializer": {"module": "keras.initializers", "class_name": "Zeros", "config": {}, "registered_name": null}, "moving_variance_initializer": {"module": "keras.initializers", "class_name": "Ones", "config": {}, "registered_name": null}, "beta_regularizer": null, "gamma_regularizer": null, "beta_constraint": null, "gamma_constraint": null}, "registered_name": null, "build_config": {"input_shape": [null, 28, 28, 32]}, "name": "block_3_project_BN_DCNN_B", "inbound_nodes": [[["block_3_project_DCNN_B", 0, 0, {}]]]}, {"module": "keras.layers", "class_name": "Conv2D", "config": {"name": "block5b_se_expand_DCNN_A", "trainable": false, "dtype": "float32", "filters": 672, "kernel_size": [1, 1], "strides": [1, 1], "padding": "same", "data_format": "channels_last", "dilation_rate": [1, 1], "groups": 1, "activation": "sigmoid", "use_bias": true, "kernel_initializer": {"module": "keras.initializers", "class_name": "VarianceScaling", "config": {"scale": 2.0, "mode": "fan_out", "distribution": "truncated_normal", "seed": null}, "registered_name": null}, "bias_initializer": {"module": "keras.initializers", "class_name": "Zeros", "config": {}, "registered_name": null}, "kernel_regularizer": null, "bias_regularizer": null, "activity_regularizer": null, "kernel_constraint": null, "bias_constraint": null}, "registered_name": null, "build_config": {"input_shape": [null, 1, 1, 28]}, "name": "block5b_se_expand_DCNN_A", "inbound_nodes": [[["block5b_se_reduce_DCNN_A", 0, 0, {}]]]}, {"module": "keras.layers", "class_name": "Conv2D", "config": {"name": "block_4_expand_DCNN_B", "trainable": false, "dtype": "float32", "filters": 192, "kernel_size": [1, 1], "strides": [1, 1], "padding": "same", "data_format": "channels_last", "dilation_rate": [1, 1], "groups": 1, "activation": "linear", "use_bias": false, "kernel_initializer": {"module": "keras.initializers", "class_name": "GlorotUniform", "config": {"seed": null}, "registered_name": null}, "bias_initializer": {"module": "keras.initializers", "class_name": "Zeros", "config": {}, "registered_name": null}, "kernel_regularizer": null, "bias_regularizer": null, "activity_regularizer": null, "kernel_constraint": null, "bias_constraint": null}, "registered_name": null, "build_config": {"input_shape": [null, 28, 28, 32]}, "name": "block_4_expand_DCNN_B", "inbound_nodes": [[["block_3_project_BN_DCNN_B", 0, 0, {}]]]}, {"module": "keras.layers", "class_name": "Multiply", "config": {"name": "block5b_se_excite_DCNN_A", "trainable": false, "dtype": "float32"}, "registered_name": null, "build_config": {"input_shape": [[null, 14, 14, 672], [null, 1, 1, 672]]}, "name": "block5b_se_excite_DCNN_A", "inbound_nodes": [[["block5b_activation_DCNN_A", 0, 0, {}], ["block5b_se_expand_DCNN_A", 0, 0, {}]]]}, {"module": "keras.layers", "class_name": "BatchNormalization", "config": {"name": "block_4_expand_BN_DCNN_B", "trainable": false, "dtype": "float32", "axis": [3], "momentum": 0.999, "epsilon": 0.001, "center": true, "scale": true, "beta_initializer": {"module": "keras.initializers", "class_name": "Zeros", "config": {}, "registered_name": null}, "gamma_initializer": {"module": "keras.initializers", "class_name": "Ones", "config": {}, "registered_name": null}, "moving_mean_initializer": {"module": "keras.initializers", "class_name": "Zeros", "config": {}, "registered_name": null}, "moving_variance_initializer": {"module": "keras.initializers", "class_name": "Ones", "config": {}, "registered_name": null}, "beta_regularizer": null, "gamma_regularizer": null, "beta_constraint": null, "gamma_constraint": null}, "registered_name": null, "build_config": {"input_shape": [null, 28, 28, 192]}, "name": "block_4_expand_BN_DCNN_B", "inbound_nodes": [[["block_4_expand_DCNN_B", 0, 0, {}]]]}, {"module": "keras.layers", "class_name": "Conv2D", "config": {"name": "block5b_project_conv_DCNN_A", "trainable": false, "dtype": "float32", "filters": 112, "kernel_size": [1, 1], "strides": [1, 1], "padding": "same", "data_format": "channels_last", "dilation_rate": [1, 1], "groups": 1, "activation": "linear", "use_bias": false, "kernel_initializer": {"module": "keras.initializers", "class_name": "VarianceScaling", "config": {"scale": 2.0, "mode": "fan_out", "distribution": "truncated_normal", "seed": null}, "registered_name": null}, "bias_initializer": {"module": "keras.initializers", "class_name": "Zeros", "config": {}, "registered_name": null}, "kernel_regularizer": null, "bias_regularizer": null, "activity_regularizer": null, "kernel_constraint": null, "bias_constraint": null}, "registered_name": null, "build_config": {"input_shape": [null, 14, 14, 672]}, "name": "block5b_project_conv_DCNN_A", "inbound_nodes": [[["block5b_se_excite_DCNN_A", 0, 0, {}]]]}, {"module": "keras.layers", "class_name": "ReLU", "config": {"name": "block_4_expand_relu_DCNN_B", "trainable": false, "dtype": "float32", "max_value": 6.0, "negative_slope": 0.0, "threshold": 0.0}, "registered_name": null, "build_config": {"input_shape": [null, 28, 28, 192]}, "name": "block_4_expand_relu_DCNN_B", "inbound_nodes": [[["block_4_expand_BN_DCNN_B", 0, 0, {}]]]}, {"module": "keras.layers", "class_name": "BatchNormalization", "config": {"name": "block5b_project_bn_DCNN_A", "trainable": false, "dtype": "float32", "axis": [3], "momentum": 0.99, "epsilon": 0.001, "center": true, "scale": true, "beta_initializer": {"module": "keras.initializers", "class_name": "Zeros", "config": {}, "registered_name": null}, "gamma_initializer": {"module": "keras.initializers", "class_name": "Ones", "config": {}, "registered_name": null}, "moving_mean_initializer": {"module": "keras.initializers", "class_name": "Zeros", "config": {}, "registered_name": null}, "moving_variance_initializer": {"module": "keras.initializers", "class_name": "Ones", "config": {}, "registered_name": null}, "beta_regularizer": null, "gamma_regularizer": null, "beta_constraint": null, "gamma_constraint": null}, "registered_name": null, "build_config": {"input_shape": [null, 14, 14, 112]}, "name": "block5b_project_bn_DCNN_A", "inbound_nodes": [[["block5b_project_conv_DCNN_A", 0, 0, {}]]]}, {"module": "keras.layers", "class_name": "DepthwiseConv2D", "config": {"name": "block_4_depthwise_DCNN_B", "trainable": false, "dtype": "float32", "kernel_size": [3, 3], "strides": [1, 1], "padding": "same", "data_format": "channels_last", "dilation_rate": [1, 1], "groups": 1, "activation": "linear", "use_bias": false, "bias_initializer": {"module": "keras.initializers", "class_name": "Zeros", "config": {}, "registered_name": null}, "bias_regularizer": null, "activity_regularizer": null, "bias_constraint": null, "depth_multiplier": 1, "depthwise_initializer": {"module": "keras.initializers", "class_name": "GlorotUniform", "config": {"seed": null}, "registered_name": null}, "depthwise_regularizer": null, "depthwise_constraint": null}, "registered_name": null, "build_config": {"input_shape": [null, 28, 28, 192]}, "name": "block_4_depthwise_DCNN_B", "inbound_nodes": [[["block_4_expand_relu_DCNN_B", 0, 0, {}]]]}, {"module": "keras.layers", "class_name": "Dropout", "config": {"name": "block5b_drop_DCNN_A", "trainable": false, "dtype": "float32", "rate": 0.1125, "noise_shape": [null, 1, 1, 1], "seed": null}, "registered_name": null, "build_config": {"input_shape": [null, 14, 14, 112]}, "name": "block5b_drop_DCNN_A", "inbound_nodes": [[["block5b_project_bn_DCNN_A", 0, 0, {}]]]}, {"module": "keras.layers", "class_name": "BatchNormalization", "config": {"name": "block_4_depthwise_BN_DCNN_B", "trainable": false, "dtype": "float32", "axis": [3], "momentum": 0.999, "epsilon": 0.001, "center": true, "scale": true, "beta_initializer": {"module": "keras.initializers", "class_name": "Zeros", "config": {}, "registered_name": null}, "gamma_initializer": {"module": "keras.initializers", "class_name": "Ones", "config": {}, "registered_name": null}, "moving_mean_initializer": {"module": "keras.initializers", "class_name": "Zeros", "config": {}, "registered_name": null}, "moving_variance_initializer": {"module": "keras.initializers", "class_name": "Ones", "config": {}, "registered_name": null}, "beta_regularizer": null, "gamma_regularizer": null, "beta_constraint": null, "gamma_constraint": null}, "registered_name": null, "build_config": {"input_shape": [null, 28, 28, 192]}, "name": "block_4_depthwise_BN_DCNN_B", "inbound_nodes": [[["block_4_depthwise_DCNN_B", 0, 0, {}]]]}, {"module": "keras.layers", "class_name": "Add", "config": {"name": "block5b_add_DCNN_A", "trainable": false, "dtype": "float32"}, "registered_name": null, "build_config": {"input_shape": [[null, 14, 14, 112], [null, 14, 14, 112]]}, "name": "block5b_add_DCNN_A", "inbound_nodes": [[["block5b_drop_DCNN_A", 0, 0, {}], ["block5a_project_bn_DCNN_A", 0, 0, {}]]]}, {"module": "keras.layers", "class_name": "ReLU", "config": {"name": "block_4_depthwise_relu_DCNN_B", "trainable": false, "dtype": "float32", "max_value": 6.0, "negative_slope": 0.0, "threshold": 0.0}, "registered_name": null, "build_config": {"input_shape": [null, 28, 28, 192]}, "name": "block_4_depthwise_relu_DCNN_B", "inbound_nodes": [[["block_4_depthwise_BN_DCNN_B", 0, 0, {}]]]}, {"module": "keras.layers", "class_name": "Conv2D", "config": {"name": "block5c_expand_conv_DCNN_A", "trainable": false, "dtype": "float32", "filters": 672, "kernel_size": [1, 1], "strides": [1, 1], "padding": "same", "data_format": "channels_last", "dilation_rate": [1, 1], "groups": 1, "activation": "linear", "use_bias": false, "kernel_initializer": {"module": "keras.initializers", "class_name": "VarianceScaling", "config": {"scale": 2.0, "mode": "fan_out", "distribution": "truncated_normal", "seed": null}, "registered_name": null}, "bias_initializer": {"module": "keras.initializers", "class_name": "Zeros", "config": {}, "registered_name": null}, "kernel_regularizer": null, "bias_regularizer": null, "activity_regularizer": null, "kernel_constraint": null, "bias_constraint": null}, "registered_name": null, "build_config": {"input_shape": [null, 14, 14, 112]}, "name": "block5c_expand_conv_DCNN_A", "inbound_nodes": [[["block5b_add_DCNN_A", 0, 0, {}]]]}, {"module": "keras.layers", "class_name": "Conv2D", "config": {"name": "block_4_project_DCNN_B", "trainable": false, "dtype": "float32", "filters": 32, "kernel_size": [1, 1], "strides": [1, 1], "padding": "same", "data_format": "channels_last", "dilation_rate": [1, 1], "groups": 1, "activation": "linear", "use_bias": false, "kernel_initializer": {"module": "keras.initializers", "class_name": "GlorotUniform", "config": {"seed": null}, "registered_name": null}, "bias_initializer": {"module": "keras.initializers", "class_name": "Zeros", "config": {}, "registered_name": null}, "kernel_regularizer": null, "bias_regularizer": null, "activity_regularizer": null, "kernel_constraint": null, "bias_constraint": null}, "registered_name": null, "build_config": {"input_shape": [null, 28, 28, 192]}, "name": "block_4_project_DCNN_B", "inbound_nodes": [[["block_4_depthwise_relu_DCNN_B", 0, 0, {}]]]}, {"module": "keras.layers", "class_name": "BatchNormalization", "config": {"name": "block5c_expand_bn_DCNN_A", "trainable": false, "dtype": "float32", "axis": [3], "momentum": 0.99, "epsilon": 0.001, "center": true, "scale": true, "beta_initializer": {"module": "keras.initializers", "class_name": "Zeros", "config": {}, "registered_name": null}, "gamma_initializer": {"module": "keras.initializers", "class_name": "Ones", "config": {}, "registered_name": null}, "moving_mean_initializer": {"module": "keras.initializers", "class_name": "Zeros", "config": {}, "registered_name": null}, "moving_variance_initializer": {"module": "keras.initializers", "class_name": "Ones", "config": {}, "registered_name": null}, "beta_regularizer": null, "gamma_regularizer": null, "beta_constraint": null, "gamma_constraint": null}, "registered_name": null, "build_config": {"input_shape": [null, 14, 14, 672]}, "name": "block5c_expand_bn_DCNN_A", "inbound_nodes": [[["block5c_expand_conv_DCNN_A", 0, 0, {}]]]}, {"module": "keras.layers", "class_name": "BatchNormalization", "config": {"name": "block_4_project_BN_DCNN_B", "trainable": false, "dtype": "float32", "axis": [3], "momentum": 0.999, "epsilon": 0.001, "center": true, "scale": true, "beta_initializer": {"module": "keras.initializers", "class_name": "Zeros", "config": {}, "registered_name": null}, "gamma_initializer": {"module": "keras.initializers", "class_name": "Ones", "config": {}, "registered_name": null}, "moving_mean_initializer": {"module": "keras.initializers", "class_name": "Zeros", "config": {}, "registered_name": null}, "moving_variance_initializer": {"module": "keras.initializers", "class_name": "Ones", "config": {}, "registered_name": null}, "beta_regularizer": null, "gamma_regularizer": null, "beta_constraint": null, "gamma_constraint": null}, "registered_name": null, "build_config": {"input_shape": [null, 28, 28, 32]}, "name": "block_4_project_BN_DCNN_B", "inbound_nodes": [[["block_4_project_DCNN_B", 0, 0, {}]]]}, {"module": "keras.layers", "class_name": "Activation", "config": {"name": "block5c_expand_activation_DCNN_A", "trainable": false, "dtype": "float32", "activation": "swish"}, "registered_name": null, "build_config": {"input_shape": [null, 14, 14, 672]}, "name": "block5c_expand_activation_DCNN_A", "inbound_nodes": [[["block5c_expand_bn_DCNN_A", 0, 0, {}]]]}, {"module": "keras.layers", "class_name": "Add", "config": {"name": "block_4_add_DCNN_B", "trainable": false, "dtype": "float32"}, "registered_name": null, "build_config": {"input_shape": [[null, 28, 28, 32], [null, 28, 28, 32]]}, "name": "block_4_add_DCNN_B", "inbound_nodes": [[["block_3_project_BN_DCNN_B", 0, 0, {}], ["block_4_project_BN_DCNN_B", 0, 0, {}]]]}, {"module": "keras.layers", "class_name": "DepthwiseConv2D", "config": {"name": "block5c_dwconv_DCNN_A", "trainable": false, "dtype": "float32", "kernel_size": [5, 5], "strides": [1, 1], "padding": "same", "data_format": "channels_last", "dilation_rate": [1, 1], "groups": 1, "activation": "linear", "use_bias": false, "bias_initializer": {"module": "keras.initializers", "class_name": "Zeros", "config": {}, "registered_name": null}, "bias_regularizer": null, "activity_regularizer": null, "bias_constraint": null, "depth_multiplier": 1, "depthwise_initializer": {"module": "keras.initializers", "class_name": "VarianceScaling", "config": {"scale": 2.0, "mode": "fan_out", "distribution": "truncated_normal", "seed": null}, "registered_name": null}, "depthwise_regularizer": null, "depthwise_constraint": null}, "registered_name": null, "build_config": {"input_shape": [null, 14, 14, 672]}, "name": "block5c_dwconv_DCNN_A", "inbound_nodes": [[["block5c_expand_activation_DCNN_A", 0, 0, {}]]]}, {"module": "keras.layers", "class_name": "Conv2D", "config": {"name": "block_5_expand_DCNN_B", "trainable": false, "dtype": "float32", "filters": 192, "kernel_size": [1, 1], "strides": [1, 1], "padding": "same", "data_format": "channels_last", "dilation_rate": [1, 1], "groups": 1, "activation": "linear", "use_bias": false, "kernel_initializer": {"module": "keras.initializers", "class_name": "GlorotUniform", "config": {"seed": null}, "registered_name": null}, "bias_initializer": {"module": "keras.initializers", "class_name": "Zeros", "config": {}, "registered_name": null}, "kernel_regularizer": null, "bias_regularizer": null, "activity_regularizer": null, "kernel_constraint": null, "bias_constraint": null}, "registered_name": null, "build_config": {"input_shape": [null, 28, 28, 32]}, "name": "block_5_expand_DCNN_B", "inbound_nodes": [[["block_4_add_DCNN_B", 0, 0, {}]]]}, {"module": "keras.layers", "class_name": "BatchNormalization", "config": {"name": "block5c_bn_DCNN_A", "trainable": false, "dtype": "float32", "axis": [3], "momentum": 0.99, "epsilon": 0.001, "center": true, "scale": true, "beta_initializer": {"module": "keras.initializers", "class_name": "Zeros", "config": {}, "registered_name": null}, "gamma_initializer": {"module": "keras.initializers", "class_name": "Ones", "config": {}, "registered_name": null}, "moving_mean_initializer": {"module": "keras.initializers", "class_name": "Zeros", "config": {}, "registered_name": null}, "moving_variance_initializer": {"module": "keras.initializers", "class_name": "Ones", "config": {}, "registered_name": null}, "beta_regularizer": null, "gamma_regularizer": null, "beta_constraint": null, "gamma_constraint": null}, "registered_name": null, "build_config": {"input_shape": [null, 14, 14, 672]}, "name": "block5c_bn_DCNN_A", "inbound_nodes": [[["block5c_dwconv_DCNN_A", 0, 0, {}]]]}, {"module": "keras.layers", "class_name": "BatchNormalization", "config": {"name": "block_5_expand_BN_DCNN_B", "trainable": false, "dtype": "float32", "axis": [3], "momentum": 0.999, "epsilon": 0.001, "center": true, "scale": true, "beta_initializer": {"module": "keras.initializers", "class_name": "Zeros", "config": {}, "registered_name": null}, "gamma_initializer": {"module": "keras.initializers", "class_name": "Ones", "config": {}, "registered_name": null}, "moving_mean_initializer": {"module": "keras.initializers", "class_name": "Zeros", "config": {}, "registered_name": null}, "moving_variance_initializer": {"module": "keras.initializers", "class_name": "Ones", "config": {}, "registered_name": null}, "beta_regularizer": null, "gamma_regularizer": null, "beta_constraint": null, "gamma_constraint": null}, "registered_name": null, "build_config": {"input_shape": [null, 28, 28, 192]}, "name": "block_5_expand_BN_DCNN_B", "inbound_nodes": [[["block_5_expand_DCNN_B", 0, 0, {}]]]}, {"module": "keras.layers", "class_name": "ZeroPadding2D", "config": {"name": "conv1_pad_DCNN_C", "trainable": false, "dtype": "float32", "padding": [[3, 3], [3, 3]], "data_format": "channels_last"}, "registered_name": null, "build_config": {"input_shape": [null, 224, 224, 3]}, "name": "conv1_pad_DCNN_C", "inbound_nodes": [[["input_1_DCNN_A_DCNN_B_DCNN_C_DCNN_A_DCNN_B_DCNN_C", 0, 0, {}]]]}, {"module": "keras.layers", "class_name": "Activation", "config": {"name": "block5c_activation_DCNN_A", "trainable": false, "dtype": "float32", "activation": "swish"}, "registered_name": null, "build_config": {"input_shape": [null, 14, 14, 672]}, "name": "block5c_activation_DCNN_A", "inbound_nodes": [[["block5c_bn_DCNN_A", 0, 0, {}]]]}, {"module": "keras.layers", "class_name": "ReLU", "config": {"name": "block_5_expand_relu_DCNN_B", "trainable": false, "dtype": "float32", "max_value": 6.0, "negative_slope": 0.0, "threshold": 0.0}, "registered_name": null, "build_config": {"input_shape": [null, 28, 28, 192]}, "name": "block_5_expand_relu_DCNN_B", "inbound_nodes": [[["block_5_expand_BN_DCNN_B", 0, 0, {}]]]}, {"module": "keras.layers", "class_name": "Conv2D", "config": {"name": "conv1_conv_DCNN_C", "trainable": false, "dtype": "float32", "filters": 64, "kernel_size": [7, 7], "strides": [2, 2], "padding": "valid", "data_format": "channels_last", "dilation_rate": [1, 1], "groups": 1, "activation": "linear", "use_bias": true, "kernel_initializer": {"module": "keras.initializers", "class_name": "GlorotUniform", "config": {"seed": null}, "registered_name": null}, "bias_initializer": {"module": "keras.initializers", "class_name": "Zeros", "config": {}, "registered_name": null}, "kernel_regularizer": null, "bias_regularizer": null, "activity_regularizer": null, "kernel_constraint": null, "bias_constraint": null}, "registered_name": null, "build_config": {"input_shape": [null, 230, 230, 3]}, "name": "conv1_conv_DCNN_C", "inbound_nodes": [[["conv1_pad_DCNN_C", 0, 0, {}]]]}, {"module": "keras.layers", "class_name": "GlobalAveragePooling2D", "config": {"name": "block5c_se_squeeze_DCNN_A", "trainable": false, "dtype": "float32", "data_format": "channels_last", "keepdims": false}, "registered_name": null, "build_config": {"input_shape": [null, 14, 14, 672]}, "name": "block5c_se_squeeze_DCNN_A", "inbound_nodes": [[["block5c_activation_DCNN_A", 0, 0, {}]]]}, {"module": "keras.layers", "class_name": "DepthwiseConv2D", "config": {"name": "block_5_depthwise_DCNN_B", "trainable": false, "dtype": "float32", "kernel_size": [3, 3], "strides": [1, 1], "padding": "same", "data_format": "channels_last", "dilation_rate": [1, 1], "groups": 1, "activation": "linear", "use_bias": false, "bias_initializer": {"module": "keras.initializers", "class_name": "Zeros", "config": {}, "registered_name": null}, "bias_regularizer": null, "activity_regularizer": null, "bias_constraint": null, "depth_multiplier": 1, "depthwise_initializer": {"module": "keras.initializers", "class_name": "GlorotUniform", "config": {"seed": null}, "registered_name": null}, "depthwise_regularizer": null, "depthwise_constraint": null}, "registered_name": null, "build_config": {"input_shape": [null, 28, 28, 192]}, "name": "block_5_depthwise_DCNN_B", "inbound_nodes": [[["block_5_expand_relu_DCNN_B", 0, 0, {}]]]}, {"module": "keras.layers", "class_name": "ZeroPadding2D", "config": {"name": "pool1_pad_DCNN_C", "trainable": false, "dtype": "float32", "padding": [[1, 1], [1, 1]], "data_format": "channels_last"}, "registered_name": null, "build_config": {"input_shape": [null, 112, 112, 64]}, "name": "pool1_pad_DCNN_C", "inbound_nodes": [[["conv1_conv_DCNN_C", 0, 0, {}]]]}, {"module": "keras.layers", "class_name": "Reshape", "config": {"name": "block5c_se_reshape_DCNN_A", "trainable": false, "dtype": "float32", "target_shape": [1, 1, 672]}, "registered_name": null, "build_config": {"input_shape": [null, 672]}, "name": "block5c_se_reshape_DCNN_A", "inbound_nodes": [[["block5c_se_squeeze_DCNN_A", 0, 0, {}]]]}, {"module": "keras.layers", "class_name": "BatchNormalization", "config": {"name": "block_5_depthwise_BN_DCNN_B", "trainable": false, "dtype": "float32", "axis": [3], "momentum": 0.999, "epsilon": 0.001, "center": true, "scale": true, "beta_initializer": {"module": "keras.initializers", "class_name": "Zeros", "config": {}, "registered_name": null}, "gamma_initializer": {"module": "keras.initializers", "class_name": "Ones", "config": {}, "registered_name": null}, "moving_mean_initializer": {"module": "keras.initializers", "class_name": "Zeros", "config": {}, "registered_name": null}, "moving_variance_initializer": {"module": "keras.initializers", "class_name": "Ones", "config": {}, "registered_name": null}, "beta_regularizer": null, "gamma_regularizer": null, "beta_constraint": null, "gamma_constraint": null}, "registered_name": null, "build_config": {"input_shape": [null, 28, 28, 192]}, "name": "block_5_depthwise_BN_DCNN_B", "inbound_nodes": [[["block_5_depthwise_DCNN_B", 0, 0, {}]]]}, {"module": "keras.layers", "class_name": "MaxPooling2D", "config": {"name": "pool1_pool_DCNN_C", "trainable": false, "dtype": "float32", "pool_size": [3, 3], "padding": "valid", "strides": [2, 2], "data_format": "channels_last"}, "registered_name": null, "build_config": {"input_shape": [null, 114, 114, 64]}, "name": "pool1_pool_DCNN_C", "inbound_nodes": [[["pool1_pad_DCNN_C", 0, 0, {}]]]}, {"module": "keras.layers", "class_name": "Conv2D", "config": {"name": "block5c_se_reduce_DCNN_A", "trainable": false, "dtype": "float32", "filters": 28, "kernel_size": [1, 1], "strides": [1, 1], "padding": "same", "data_format": "channels_last", "dilation_rate": [1, 1], "groups": 1, "activation": "swish", "use_bias": true, "kernel_initializer": {"module": "keras.initializers", "class_name": "VarianceScaling", "config": {"scale": 2.0, "mode": "fan_out", "distribution": "truncated_normal", "seed": null}, "registered_name": null}, "bias_initializer": {"module": "keras.initializers", "class_name": "Zeros", "config": {}, "registered_name": null}, "kernel_regularizer": null, "bias_regularizer": null, "activity_regularizer": null, "kernel_constraint": null, "bias_constraint": null}, "registered_name": null, "build_config": {"input_shape": [null, 1, 1, 672]}, "name": "block5c_se_reduce_DCNN_A", "inbound_nodes": [[["block5c_se_reshape_DCNN_A", 0, 0, {}]]]}, {"module": "keras.layers", "class_name": "ReLU", "config": {"name": "block_5_depthwise_relu_DCNN_B", "trainable": false, "dtype": "float32", "max_value": 6.0, "negative_slope": 0.0, "threshold": 0.0}, "registered_name": null, "build_config": {"input_shape": [null, 28, 28, 192]}, "name": "block_5_depthwise_relu_DCNN_B", "inbound_nodes": [[["block_5_depthwise_BN_DCNN_B", 0, 0, {}]]]}, {"module": "keras.layers", "class_name": "BatchNormalization", "config": {"name": "conv2_block1_preact_bn_DCNN_C", "trainable": false, "dtype": "float32", "axis": [3], "momentum": 0.99, "epsilon": 1.001e-05, "center": true, "scale": true, "beta_initializer": {"module": "keras.initializers", "class_name": "Z…
ect_DCNN_B", 0, 0, {}]]]}, {"module": "keras.layers", "class_name": "BatchNormalization", "config": {"name": "conv3_block2_1_bn_DCNN_C", "trainable": false, "dtype": "float32", "axis": [3], "momentum": 0.99, "epsilon": 1.001e-05, "center": true, "scale": true, "beta_initializer": {"module": "keras.initializers", "class_name": "Zeros", "config": {}, "registered_name": null}, "gamma_initializer": {"module": "keras.initializers", "class_name": "Ones", "config": {}, "registered_name": null}, "moving_mean_initializer": {"module": "keras.initializers", "class_name": "Zeros", "config": {}, "registered_name": null}, "moving_variance_initializer": {"module": "keras.initializers", "class_name": "Ones", "config": {}, "registered_name": null}, "beta_regularizer": null, "gamma_regularizer": null, "beta_constraint": null, "gamma_constraint": null}, "registered_name": null, "build_config": {"input_shape": [null, 28, 28, 128]}, "name": "conv3_block2_1_bn_DCNN_C", "inbound_nodes": [[["conv3_block2_1_conv_DCNN_C", 0, 0, {}]]]}, {"module": "keras.layers", "class_name": "BatchNormalization", "config": {"name": "block6c_project_bn_DCNN_A", "trainable": false, "dtype": "float32", "axis": [3], "momentum": 0.99, "epsilon": 0.001, "center": true, "scale": true, "beta_initializer": {"module": "keras.initializers", "class_name": "Zeros", "config": {}, "registered_name": null}, "gamma_initializer": {"module": "keras.initializers", "class_name": "Ones", "config": {}, "registered_name": null}, "moving_mean_initializer": {"module": "keras.initializers", "class_name": "Zeros", "config": {}, "registered_name": null}, "moving_variance_initializer": {"module": "keras.initializers", "class_name": "Ones", "config": {}, "registered_name": null}, "beta_regularizer": null, "gamma_regularizer": null, "beta_constraint": null, "gamma_constraint": null}, "registered_name": null, "build_config": {"input_shape": [null, 7, 7, 192]}, "name": "block6c_project_bn_DCNN_A", "inbound_nodes": [[["block6c_project_conv_DCNN_A", 0, 0, {}]]]}, {"module": "keras.layers", "class_name": "Conv2D", "config": {"name": "block_11_expand_DCNN_B", "trainable": false, "dtype": "float32", "filters": 576, "kernel_size": [1, 1], "strides": [1, 1], "padding": "same", "data_format": "channels_last", "dilation_rate": [1, 1], "groups": 1, "activation": "linear", "use_bias": false, "kernel_initializer": {"module": "keras.initializers", "class_name": "GlorotUniform", "config": {"seed": null}, "registered_name": null}, "bias_initializer": {"module": "keras.initializers", "class_name": "Zeros", "config": {}, "registered_name": null}, "kernel_regularizer": null, "bias_regularizer": null, "activity_regularizer": null, "kernel_constraint": null, "bias_constraint": null}, "registered_name": null, "build_config": {"input_shape": [null, 14, 14, 96]}, "name": "block_11_expand_DCNN_B", "inbound_nodes": [[["block_10_project_BN_DCNN_B", 0, 0, {}]]]}, {"module": "keras.layers", "class_name": "Activation", "config": {"name": "conv3_block2_1_relu_DCNN_C", "trainable": false, "dtype": "float32", "activation": "relu"}, "registered_name": null, "build_config": {"input_shape": [null, 28, 28, 128]}, "name": "conv3_block2_1_relu_DCNN_C", "inbound_nodes": [[["conv3_block2_1_bn_DCNN_C", 0, 0, {}]]]}, {"module": "keras.layers", "class_name": "Dropout", "config": {"name": "block6c_drop_DCNN_A", "trainable": false, "dtype": "float32", "rate": 0.1625, "noise_shape": [null, 1, 1, 1], "seed": null}, "registered_name": null, "build_config": {"input_shape": [null, 7, 7, 192]}, "name": "block6c_drop_DCNN_A", "inbound_nodes": [[["block6c_project_bn_DCNN_A", 0, 0, {}]]]}, {"module": "keras.layers", "class_name": "BatchNormalization", "config": {"name": "block_11_expand_BN_DCNN_B", "trainable": false, "dtype": "float32", "axis": [3], "momentum": 0.999, "epsilon": 0.001, "center": true, "scale": true, "beta_initializer": {"module": "keras.initializers", "class_name": "Zeros", "config": {}, "registered_name": null}, "gamma_initializer": {"module": "keras.initializers", "class_name": "Ones", "config": {}, "registered_name": null}, "moving_mean_initializer": {"module": "keras.initializers", "class_name": "Zeros", "config": {}, "registered_name": null}, "moving_variance_initializer": {"module": "keras.initializers", "class_name": "Ones", "config": {}, "registered_name": null}, "beta_regularizer": null, "gamma_regularizer": null, "beta_constraint": null, "gamma_constraint": null}, "registered_name": null, "build_config": {"input_shape": [null, 14, 14, 576]}, "name": "block_11_expand_BN_DCNN_B", "inbound_nodes": [[["block_11_expand_DCNN_B", 0, 0, {}]]]}, {"module": "keras.layers", "class_name": "ZeroPadding2D", "config": {"name": "conv3_block2_2_pad_DCNN_C", "trainable": false, "dtype": "float32", "padding": [[1, 1], [1, 1]], "data_format": "channels_last"}, "registered_name": null, "build_config": {"input_shape": [null, 28, 28, 128]}, "name": "conv3_block2_2_pad_DCNN_C", "inbound_nodes": [[["conv3_block2_1_relu_DCNN_C", 0, 0, {}]]]}, {"module": "keras.layers", "class_name": "Add", "config": {"name": "block6c_add_DCNN_A", "trainable": false, "dtype": "float32"}, "registered_name": null, "build_config": {"input_shape": [[null, 7, 7, 192], [null, 7, 7, 192]]}, "name": "block6c_add_DCNN_A", "inbound_nodes": [[["block6c_drop_DCNN_A", 0, 0, {}], ["block6b_add_DCNN_A", 0, 0, {}]]]}, {"module": "keras.layers", "class_name": "ReLU", "config": {"name": "block_11_expand_relu_DCNN_B", "trainable": false, "dtype": "float32", "max_value": 6.0, "negative_slope": 0.0, "threshold": 0.0}, "registered_name": null, "build_config": {"input_shape": [null, 14, 14, 576]}, "name": "block_11_expand_relu_DCNN_B", "inbound_nodes": [[["block_11_expand_BN_DCNN_B", 0, 0, {}]]]}, {"module": "keras.layers", "class_name": "Conv2D", "config": {"name": "conv3_block2_2_conv_DCNN_C", "trainable": false, "dtype": "float32", "filters": 128, "kernel_size": [3, 3], "strides": [1, 1], "padding": "valid", "data_format": "channels_last", "dilation_rate": [1, 1], "groups": 1, "activation": "linear", "use_bias": false, "kernel_initializer": {"module": "keras.initializers", "class_name": "GlorotUniform", "config": {"seed": null}, "registered_name": null}, "bias_initializer": {"module": "keras.initializers", "class_name": "Zeros", "config": {}, "registered_name": null}, "kernel_regularizer": null, "bias_regularizer": null, "activity_regularizer": null, "kernel_constraint": null, "bias_constraint": null}, "registered_name": null, "build_config": {"input_shape": [null, 30, 30, 128]}, "name": "conv3_block2_2_conv_DCNN_C", "inbound_nodes": [[["conv3_block2_2_pad_DCNN_C", 0, 0, {}]]]}, {"module": "keras.layers", "class_name": "Conv2D", "config": {"name": "block6d_expand_conv_DCNN_A", "trainable": false, "dtype": "float32", "filters": 1152, "kernel_size": [1, 1], "strides": [1, 1], "padding": "same", "data_format": "channels_last", "dilation_rate": [1, 1], "groups": 1, "activation": "linear", "use_bias": false, "kernel_initializer": {"module": "keras.initializers", "class_name": "VarianceScaling", "config": {"scale": 2.0, "mode": "fan_out", "distribution": "truncated_normal", "seed": null}, "registered_name": null}, "bias_initializer": {"module": "keras.initializers", "class_name": "Zeros", "config": {}, "registered_name": null}, "kernel_regularizer": null, "bias_regularizer": null, "activity_regularizer": null, "kernel_constraint": null, "bias_constraint": null}, "registered_name": null, "build_config": {"input_shape": [null, 7, 7, 192]}, "name": "block6d_expand_conv_DCNN_A", "inbound_nodes": [[["block6c_add_DCNN_A", 0, 0, {}]]]}, {"module": "keras.layers", "class_name": "DepthwiseConv2D", "config": {"name": "block_11_depthwise_DCNN_B", "trainable": false, "dtype": "float32", "kernel_size": [3, 3], "strides": [1, 1], "padding": "same", "data_format": "channels_last", "dilation_rate": [1, 1], "groups": 1, "activation": "linear", "use_bias": false, "bias_initializer": {"module": "keras.initializers", "class_name": "Zeros", "config": {}, "registered_name": null}, "bias_regularizer": null, "activity_regularizer": null, "bias_constraint": null, "depth_multiplier": 1, "depthwise_initializer": {"module": "keras.initializers", "class_name": "GlorotUniform", "config": {"seed": null}, "registered_name": null}, "depthwise_regularizer": null, "depthwise_constraint": null}, "registered_name": null, "build_config": {"input_shape": [null, 14, 14, 576]}, "name": "block_11_depthwise_DCNN_B", "inbound_nodes": [[["block_11_expand_relu_DCNN_B", 0, 0, {}]]]}, {"module": "keras.layers", "class_name": "BatchNormalization", "config": {"name": "conv3_block2_2_bn_DCNN_C", "trainable": false, "dtype": "float32", "axis": [3], "momentum": 0.99, "epsilon": 1.001e-05, "center": true, "scale": true, "beta_initializer": {"module": "keras.initializers", "class_name": "Zeros", "config": {}, "registered_name": null}, "gamma_initializer": {"module": "keras.initializers", "class_name": "Ones", "config": {}, "registered_name": null}, "moving_mean_initializer": {"module": "keras.initializers", "class_name": "Zeros", "config": {}, "registered_name": null}, "moving_variance_initializer": {"module": "keras.initializers", "class_name": "Ones", "config": {}, "registered_name": null}, "beta_regularizer": null, "gamma_regularizer": null, "beta_constraint": null, "gamma_constraint": null}, "registered_name": null, "build_config": {"input_shape": [null, 28, 28, 128]}, "name": "conv3_block2_2_bn_DCNN_C", "inbound_nodes": [[["conv3_block2_2_conv_DCNN_C", 0, 0, {}]]]}, {"module": "keras.layers", "class_name": "BatchNormalization", "config": {"name": "block6d_expand_bn_DCNN_A", "trainable": false, "dtype": "float32", "axis": [3], "momentum": 0.99, "epsilon": 0.001, "center": true, "scale": true, "beta_initializer": {"module": "keras.initializers", "class_name": "Zeros", "config": {}, "registered_name": null}, "gamma_initializer": {"module": "keras.initializers", "class_name": "Ones", "config": {}, "registered_name": null}, "moving_mean_initializer": {"module": "keras.initializers", "class_name": "Zeros", "config": {}, "registered_name": null}, "moving_variance_initializer": {"module": "keras.initializers", "class_name": "Ones", "config": {}, "registered_name": null}, "beta_regularizer": null, "gamma_regularizer": null, "beta_constraint": null, "gamma_constraint": null}, "registered_name": null, "build_config": {"input_shape": [null, 7, 7, 1152]}, "name": "block6d_expand_bn_DCNN_A", "inbound_nodes": [[["block6d_expand_conv_DCNN_A", 0, 0, {}]]]}, {"module": "keras.layers", "class_name": "BatchNormalization", "config": {"name": "block_11_depthwise_BN_DCNN_B", "trainable": false, "dtype": "float32", "axis": [3], "momentum": 0.999, "epsilon": 0.001, "center": true, "scale": true, "beta_initializer": {"module": "keras.initializers", "class_name": "Zeros", "config": {}, "registered_name": null}, "gamma_initializer": {"module": "keras.initializers", "class_name": "Ones", "config": {}, "registered_name": null}, "moving_mean_initializer": {"module": "keras.initializers", "class_name": "Zeros", "config": {}, "registered_name": null}, "moving_variance_initializer": {"module": "keras.initializers", "class_name": "Ones", "config": {}, "registered_name": null}, "beta_regularizer": null, "gamma_regularizer": null, "beta_constraint": null, "gamma_constraint": null}, "registered_name": null, "build_config": {"input_shape": [null, 14, 14, 576]}, "name": "block_11_depthwise_BN_DCNN_B", "inbound_nodes": [[["block_11_depthwise_DCNN_B", 0, 0, {}]]]}, {"module": "keras.layers", "class_name": "Activation", "config": {"name": "conv3_block2_2_relu_DCNN_C", "trainable": false, "dtype": "float32", "activation": "relu"}, "registered_name": null, "build_config": {"input_shape": [null, 28, 28, 128]}, "name": "conv3_block2_2_relu_DCNN_C", "inbound_nodes": [[["conv3_block2_2_bn_DCNN_C", 0, 0, {}]]]}, {"module": "keras.layers", "class_name": "Activation", "config": {"name": "block6d_expand_activation_DCNN_A", "trainable": false, "dtype": "float32", "activation": "swish"}, "registered_name": null, "build_config": {"input_shape": [null, 7, 7, 1152]}, "name": "block6d_expand_activation_DCNN_A", "inbound_nodes": [[["block6d_expand_bn_DCNN_A", 0, 0, {}]]]}, {"module": "keras.layers", "class_name": "ReLU", "config": {"name": "block_11_depthwise_relu_DCNN_B", "trainable": false, "dtype": "float32", "max_value": 6.0, "negative_slope": 0.0, "threshold": 0.0}, "registered_name": null, "build_config": {"input_shape": [null, 14, 14, 576]}, "name": "block_11_depthwise_relu_DCNN_B", "inbound_nodes": [[["block_11_depthwise_BN_DCNN_B", 0, 0, {}]]]}, {"module": "keras.layers", "class_name": "Conv2D", "config": {"name": "conv3_block2_3_conv_DCNN_C", "trainable": false, "dtype": "float32", "filters": 512, "kernel_size": [1, 1], "strides": [1, 1], "padding": "valid", "data_format": "channels_last", "dilation_rate": [1, 1], "groups": 1, "activation": "linear", "use_bias": true, "kernel_initializer": {"module": "keras.initializers", "class_name": "GlorotUniform", "config": {"seed": null}, "registered_name": null}, "bias_initializer": {"module": "keras.initializers", "class_name": "Zeros", "config": {}, "registered_name": null}, "kernel_regularizer": null, "bias_regularizer": null, "activity_regularizer": null, "kernel_constraint": null, "bias_constraint": null}, "registered_name": null, "build_config": {"input_shape": [null, 28, 28, 128]}, "name": "conv3_block2_3_conv_DCNN_C", "inbound_nodes": [[["conv3_block2_2_relu_DCNN_C", 0, 0, {}]]]}, {"module": "keras.layers", "class_name": "DepthwiseConv2D", "config": {"name": "block6d_dwconv_DCNN_A", "trainable": false, "dtype": "float32", "kernel_size": [5, 5], "strides": [1, 1], "padding": "same", "data_format": "channels_last", "dilation_rate": [1, 1], "groups": 1, "activation": "linear", "use_bias": false, "bias_initializer": {"module": "keras.initializers", "class_name": "Zeros", "config": {}, "registered_name": null}, "bias_regularizer": null, "activity_regularizer": null, "bias_constraint": null, "depth_multiplier": 1, "depthwise_initializer": {"module": "keras.initializers", "class_name": "VarianceScaling", "config": {"scale": 2.0, "mode": "fan_out", "distribution": "truncated_normal", "seed": null}, "registered_name": null}, "depthwise_regularizer": null, "depthwise_constraint": null}, "registered_name": null, "build_config": {"input_shape": [null, 7, 7, 1152]}, "name": "block6d_dwconv_DCNN_A", "inbound_nodes": [[["block6d_expand_activation_DCNN_A", 0, 0, {}]]]}, {"module": "keras.layers", "class_name": "Conv2D", "config": {"name": "block_11_project_DCNN_B", "trainable": false, "dtype": "float32", "filters": 96, "kernel_size": [1, 1], "strides": [1, 1], "padding": "same", "data_format": "channels_last", "dilation_rate": [1, 1], "groups": 1, "activation": "linear", "use_bias": false, "kernel_initializer": {"module": "keras.initializers", "class_name": "GlorotUniform", "config": {"seed": null}, "registered_name": null}, "bias_initializer": {"module": "keras.initializers", "class_name": "Zeros", "config": {}, "registered_name": null}, "kernel_regularizer": null, "bias_regularizer": null, "activity_regularizer": null, "kernel_constraint": null, "bias_constraint": null}, "registered_name": null, "build_config": {"input_shape": [null, 14, 14, 576]}, "name": "block_11_project_DCNN_B", "inbound_nodes": [[["block_11_depthwise_relu_DCNN_B", 0, 0, {}]]]}, {"module": "keras.layers", "class_name": "Add", "config": {"name": "conv3_block2_out_DCNN_C", "trainable": false, "dtype": "float32"}, "registered_name": null, "build_config": {"input_shape": [[null, 28, 28, 512], [null, 28, 28, 512]]}, "name": "conv3_block2_out_DCNN_C", "inbound_nodes": [[["conv3_block1_out_DCNN_C", 0, 0, {}], ["conv3_block2_3_conv_DCNN_C", 0, 0, {}]]]}, {"module": "keras.layers", "class_name": "BatchNormalization", "config": {"name": "block6d_bn_DCNN_A", "trainable": false, "dtype": "float32", "axis": [3], "momentum": 0.99, "epsilon": 0.001, "center": true, "scale": true, "beta_initializer": {"module": "keras.initializers", "class_name": "Zeros", "config": {}, "registered_name": null}, "gamma_initializer": {"module": "keras.initializers", "class_name": "Ones", "config": {}, "registered_name": null}, "moving_mean_initializer": {"module": "keras.initializers", "class_name": "Zeros", "config": {}, "registered_name": null}, "moving_variance_initializer": {"module": "keras.initializers", "class_name": "Ones", "config": {}, "registered_name": null}, "beta_regularizer": null, "gamma_regularizer": null, "beta_constraint": null, "gamma_constraint": null}, "registered_name": null, "build_config": {"input_shape": [null, 7, 7, 1152]}, "name": "block6d_bn_DCNN_A", "inbound_nodes": [[["block6d_dwconv_DCNN_A", 0, 0, {}]]]}, {"module": "keras.layers", "class_name": "BatchNormalization", "config": {"name": "block_11_project_BN_DCNN_B", "trainable": false, "dtype": "float32", "axis": [3], "momentum": 0.999, "epsilon": 0.001, "center": true, "scale": true, "beta_initializer": {"module": "keras.initializers", "class_name": "Zeros", "config": {}, "registered_name": null}, "gamma_initializer": {"module": "keras.initializers", "class_name": "Ones", "config": {}, "registered_name": null}, "moving_mean_initializer": {"module": "keras.initializers", "class_name": "Zeros", "config": {}, "registered_name": null}, "moving_variance_initializer": {"module": "keras.initializers", "class_name": "Ones", "config": {}, "registered_name": null}, "beta_regularizer": null, "gamma_regularizer": null, "beta_constraint": null, "gamma_constraint": null}, "registered_name": null, "build_config": {"input_shape": [null, 14, 14, 96]}, "name": "block_11_project_BN_DCNN_B", "inbound_nodes": [[["block_11_project_DCNN_B", 0, 0, {}]]]}, {"module": "keras.layers", "class_name": "BatchNormalization", "config": {"name": "conv3_block3_preact_bn_DCNN_C", "trainable": false, "dtype": "float32", "axis": [3], "momentum": 0.99, "epsilon": 1.001e-05, "center": true, "scale": true, "beta_initializer": {"module": "keras.initializers", "class_name": "Zeros", "config": {}, "registered_name": null}, "gamma_initializer": {"module": "keras.initializers", "class_name": "Ones", "config": {}, "registered_name": null}, "moving_mean_initializer": {"module": "keras.initializers", "class_name": "Zeros", "config": {}, "registered_name": null}, "moving_variance_initializer": {"module": "keras.initializers", "class_name": "Ones", "config": {}, "registered_name": null}, "beta_regularizer": null, "gamma_regularizer": null, "beta_constraint": null, "gamma_constraint": null}, "registered_name": null, "build_config": {"input_shape": [null, 28, 28, 512]}, "name": "conv3_block3_preact_bn_DCNN_C", "inbound_nodes": [[["conv3_block2_out_DCNN_C", 0, 0, {}]]]}, {"module": "keras.layers", "class_name": "Activation", "config": {"name": "block6d_activation_DCNN_A", "trainable": false, "dtype": "float32", "activation": "swish"}, "registered_name": null, "build_config": {"input_shape": [null, 7, 7, 1152]}, "name": "block6d_activation_DCNN_A", "inbound_nodes": [[["block6d_bn_DCNN_A", 0, 0, {}]]]}, {"module": "keras.layers", "class_name": "Add", "config": {"name": "block_11_add_DCNN_B", "trainable": false, "dtype": "float32"}, "registered_name": null, "build_config": {"input_shape": [[null, 14, 14, 96], [null, 14, 14, 96]]}, "name": "block_11_add_DCNN_B", "inbound_nodes": [[["block_10_project_BN_DCNN_B", 0, 0, {}], ["block_11_project_BN_DCNN_B", 0, 0, {}]]]}, {"module": "keras.layers", "class_name": "Activation", "config": {"name": "conv3_block3_preact_relu_DCNN_C", "trainable": false, "dtype": "float32", "activation": "relu"}, "registered_name": null, "build_config": {"input_shape": [null, 28, 28, 512]}, "name": "conv3_block3_preact_relu_DCNN_C", "inbound_nodes": [[["conv3_block3_preact_bn_DCNN_C", 0, 0, {}]]]}, {"module": "keras.layers", "class_name": "GlobalAveragePooling2D", "config": {"name": "block6d_se_squeeze_DCNN_A", "trainable": false, "dtype": "float32", "data_format": "channels_last", "keepdims": false}, "registered_name": null, "build_config": {"input_shape": [null, 7, 7, 1152]}, "name": "block6d_se_squeeze_DCNN_A", "inbound_nodes": [[["block6d_activation_DCNN_A", 0, 0, {}]]]}, {"module": "keras.layers", "class_name": "Conv2D", "config": {"name": "block_12_expand_DCNN_B", "trainable": false, "dtype": "float32", "filters": 576, "kernel_size": [1, 1], "strides": [1, 1], "padding": "same", "data_format": "channels_last", "dilation_rate": [1, 1], "groups": 1, "activation": "linear", "use_bias": false, "kernel_initializer": {"module": "keras.initializers", "class_name": "GlorotUniform", "config": {"seed": null}, "registered_name": null}, "bias_initializer": {"module": "keras.initializers", "class_name": "Zeros", "config": {}, "registered_name": null}, "kernel_regularizer": null, "bias_regularizer": null, "activity_regularizer": null, "kernel_constraint": null, "bias_constraint": null}, "registered_name": null, "build_config": {"input_shape": [null, 14, 14, 96]}, "name": "block_12_expand_DCNN_B", "inbound_nodes": [[["block_11_add_DCNN_B", 0, 0, {}]]]}, {"module": "keras.layers", "class_name": "Conv2D", "config": {"name": "conv3_block3_1_conv_DCNN_C", "trainable": false, "dtype": "float32", "filters": 128, "kernel_size": [1, 1], "strides": [1, 1], "padding": "valid", "data_format": "channels_last", "dilation_rate": [1, 1], "groups": 1, "activation": "linear", "use_bias": false, "kernel_initializer": {"module": "keras.initializers", "class_name": "GlorotUniform", "config": {"seed": null}, "registered_name": null}, "bias_initializer": {"module": "keras.initializers", "class_name": "Zeros", "config": {}, "registered_name": null}, "kernel_regularizer": null, "bias_regularizer": null, "activity_regularizer": null, "kernel_constraint": null, "bias_constraint": null}, "registered_name": null, "build_config": {"input_shape": [null, 28, 28, 512]}, "name": "conv3_block3_1_conv_DCNN_C", "inbound_nodes": [[["conv3_block3_preact_relu_DCNN_C", 0, 0, {}]]]}, {"module": "keras.layers", "class_name": "Reshape", "config": {"name": "block6d_se_reshape_DCNN_A", "trainable": false, "dtype": "float32", "target_shape": [1, 1, 1152]}, "registered_name": null, "build_config": {"input_shape": [null, 1152]}, "name": "block6d_se_reshape_DCNN_A", "inbound_nodes": [[["block6d_se_squeeze_DCNN_A", 0, 0, {}]]]}, {"module": "keras.layers", "class_name": "BatchNormalization", "config": {"name": "block_12_expand_BN_DCNN_B", "trainable": false, "dtype": "float32", "axis": [3], "momentum": 0.999, "epsilon": 0.001, "center": true, "scale": true, "beta_initializer": {"module": "keras.initializers", "class_name": "Zeros", "config": {}, "registered_name": null}, "gamma_initializer": {"module": "keras.initializers", "class_name": "Ones", "config": {}, "registered_name": null}, "moving_mean_initializer": {"module": "keras.initializers", "class_name": "Zeros", "config": {}, "registered_name": null}, "moving_variance_initializer": {"module": "keras.initializers", "class_name": "Ones", "config": {}, "registered_name": null}, "beta_regularizer": null, "gamma_regularizer": null, "beta_constraint": null, "gamma_constraint": null}, "registered_name": null, "build_config": {"input_shape": [null, 14, 14, 576]}, "name": "block_12_expand_BN_DCNN_B", "inbound_nodes": [[["block_12_expand_DCNN_B", 0, 0, {}]]]}, {"module": "keras.layers", "class_name": "BatchNormalization", "config": {"name": "conv3_block3_1_bn_DCNN_C", "trainable": false, "dtype": "float32", "axis": [3], "momentum": 0.99, "epsilon": 1.001e-05, "center": true, "scale": true, "beta_initializer": {"module": "keras.initializers", "class_name": "Zeros", "config": {}, "registered_name": null}, "gamma_initializer": {"module": "keras.initializers", "class_name": "Ones", "config": {}, "registered_name": null}, "moving_mean_initializer": {"module": "keras.initializers", "class_name": "Zeros", "config": {}, "registered_name": null}, "moving_variance_initializer": {"module": "keras.initializers", "class_name": "Ones", "config": {}, "registered_name": null}, "beta_regularizer": null, "gamma_regularizer": null, "beta_constraint": null, "gamma_constraint": null}, "registered_name": null, "build_config": {"input_shape": [null, 28, 28, 128]}, "name": "conv3_block3_1_bn_DCNN_C", "inbound_nodes": [[["conv3_block3_1_conv_DCNN_C", 0, 0, {}]]]}, {"module": "keras.layers", "class_name": "Conv2D", "config": {"name": "block6d_se_reduce_DCNN_A", "trainable": false, "dtype": "float32", "filters": 48, "kernel_size": [1, 1], "strides": [1, 1], "padding": "same", "data_format": "channels_last", "dilation_rate": [1, 1], "groups": 1, "activation": "swish", "use_bias": true, "kernel_initializer": {"module": "keras.initializers", "class_name": "VarianceScaling", "config": {"scale": 2.0, "mode": "fan_out", "distribution": "truncated_normal", "seed": null}, "registered_name": null}, "bias_initializer": {"module": "keras.initializers", "class_name": "Zeros", "config": {}, "registered_name": null}, "kernel_regularizer": null, "bias_regularizer": null, "activity_regularizer": null, "kernel_constraint": null, "bias_constraint": null}, "registered_name": null, "build_config": {"input_shape": [null, 1, 1, 1152]}, "name": "block6d_se_reduce_DCNN_A", "inbound_nodes": [[["block6d_se_reshape_DCNN_A", 0, 0, {}]]]}, {"module": "keras.layers", "class_name": "ReLU", "config": {"name": "block_12_expand_relu_DCNN_B", "trainable": false, "dtype": "float32", "max_value": 6.0, "negative_slope": 0.0, "threshold": 0.0}, "registered_name": null, "build_config": {"input_shape": [null, 14, 14, 576]}, "name": "block_12_expand_relu_DCNN_B", "inbound_nodes": [[["block_12_expand_BN_DCNN_B", 0, 0, {}]]]}, {"module": "keras.layers", "class_name": "Activation", "config": {"name": "conv3_block3_1_relu_DCNN_C", "trainable": false, "dtype": "float32", "activation": "relu"}, "registered_name": null, "build_config": {"input_shape": [null, 28, 28, 128]}, "name": "conv3_block3_1_relu_DCNN_C", "inbound_nodes": [[["conv3_block3_1_bn_DCNN_C", 0, 0, {}]]]}, {"module": "keras.layers", "class_name": "Conv2D", "config": {"name": "block6d_se_expand_DCNN_A", "trainable": false, "dtype": "float32", "filters": 1152, "kernel_size": [1, 1], "strides": [1, 1], "padding": "same", "data_format": "channels_last", "dilation_rate": [1, 1], "groups": 1, "activation": "sigmoid", "use_bias": true, "kernel_initializer": {"module": "keras.initializers", "class_name": "VarianceScaling", "config": {"scale": 2.0, "mode": "fan_out", "distribution": "truncated_normal", "seed": null}, "registered_name": null}, "bias_initializer": {"module": "keras.initializers", "class_name": "Zeros", "config": {}, "registered_name": null}, "kernel_regularizer": null, "bias_regularizer": null, "activity_regularizer": null, "kernel_constraint": null, "bias_constraint": null}, "registered_name": null, "build_config": {"input_shape": [null, 1, 1, 48]}, "name": "block6d_se_expand_DCNN_A", "inbound_nodes": [[["block6d_se_reduce_DCNN_A", 0, 0, {}]]]}, {"module": "keras.layers", "class_name": "DepthwiseConv2D", "config": {"name": "block_12_depthwise_DCNN_B", "trainable": false, "dtype": "float32", "kernel_size": [3, 3], "strides": [1, 1], "padding": "same", "data_format": "channels_last", "dilation_rate": [1, 1], "groups": 1, "activation": "linear", "use_bias": false, "bias_initializer": {"module": "keras.initializers", "class_name": "Zeros", "config": {}, "registered_name": null}, "bias_regularizer": null, "activity_regularizer": null, "bias_constraint": null, "depth_multiplier": 1, "depthwise_initializer": {"module": "keras.initializers", "class_name": "GlorotUniform", "config": {"seed": null}, "registered_name": null}, "depthwise_regularizer": null, "depthwise_constraint": null}, "registered_name": null, "build_config": {"input_shape": [null, 14, 14, 576]}, "name": "block_12_depthwise_DCNN_B", "inbound_nodes": [[["block_12_expand_relu_DCNN_B", 0, 0, {}]]]}, {"module": "keras.layers", "class_name": "ZeroPadding2D", "config": {"name": "conv3_block3_2_pad_DCNN_C", "trainable": false, "dtype": "float32", "padding": [[1, 1], [1, 1]], "data_format": "channels_last"}, "registered_name": null, "build_config": {"input_shape": [null, 28, 28, 128]}, "name": "conv3_block3_2_pad_DCNN_C", "inbound_nodes": [[["conv3_block3_1_relu_DCNN_C", 0, 0, {}]]]}, {"module": "keras.layers", "class_name": "Multiply", "config": {"name": "block6d_se_excite_DCNN_A", "trainable": false, "dtype": "float32"}, "registered_name": null, "build_config": {"input_shape": [[null, 7, 7, 1152], [null, 1, 1, 1152]]}, "name": "block6d_se_excite_DCNN_A", "inbound_nodes": [[["block6d_activation_DCNN_A", 0, 0, {}], ["block6d_se_expand_DCNN_A", 0, 0, {}]]]}, {"module": "keras.layers", "class_name": "BatchNormalization", "config": {"name": "block_12_depthwise_BN_DCNN_B", "trainable": false, "dtype": "float32", "axis": [3], "momentum": 0.999, "epsilon": 0.001, "center": true, "scale": true, "beta_initializer": {"module": "keras.initializers", "class_name": "Zeros", "config": {}, "registered_name": null}, "gamma_initializer": {"module": "keras.initializers", "class_name": "Ones", "config": {}, "registered_name": null}, "moving_mean_initializer": {"module": "keras.initializers", "class_name": "Zeros", "config": {}, "registered_name": null}, "moving_variance_initializer": {"module": "keras.initializers", "class_name": "Ones", "config": {}, "registered_name": null}, "beta_regularizer": null, "gamma_regularizer": null, "beta_constraint": null, "gamma_constraint": null}, "registered_name": null, "build_config": {"input_shape": [null, 14, 14, 576]}, "name": "block_12_depthwise_BN_DCNN_B", "inbound_nodes": [[["block_12_depthwise_DCNN_B", 0, 0, {}]]]}, {"module": "keras.layers", "class_name": "Conv2D", "config": {"name": "conv3_block3_2_conv_DCNN_C", "trainable": false, "dtype": "float32", "filters": 128, "kernel_size": [3, 3], "strides": [1, 1], "padding": "valid", "data_format": "channels_last", "dilation_rate": [1, 1], "groups": 1, "activation": "linear", "use_bias": false, "kernel_initializer": {"module": "keras.initializers", "class_name": "GlorotUniform", "config": {"seed": null}, "registered_name": null}, "bias_initializer": {"module": "keras.initializers", "class_name": "Zeros", "config": {}, "registered_name": null}, "kernel_regularizer": null, "bias_regularizer": null, "activity_regularizer": null, "kernel_constraint": null, "bias_constraint": null}, "registered_name": null, "build_config": {"input_shape": [null, 30, 30, 128]}, "name": "conv3_block3_2_conv_DCNN_C", "inbound_nodes": [[["conv3_block3_2_pad_DCNN_C", 0, 0, {}]]]}, {"module": "keras.layers", "class_name": "Conv2D", "config": {"name": "block6d_project_conv_DCNN_A", "trainable": false, "dtype": "float32", "filters": 192, "kernel_size": [1, 1], "strides": [1, 1], "padding": "same", "data_format": "channels_last", "dilation_rate": [1, 1], "groups": 1, "activation": "linear", "use_bias": false, "kernel_initializer": {"module": "keras.initializers", "class_name": "VarianceScaling", "config": {"scale": 2.0, "mode": "fan_out", "distribution": "truncated_normal", "seed": null}, "registered_name": null}, "bias_initializer": {"module": "keras.initializers", "class_name": "Zeros", "config": {}, "registered_name": null}, "kernel_regularizer": null, "bias_regularizer": null, "activity_regularizer": null, "kernel_constraint": null, "bias_constraint": null}, "registered_name": null, "build_config": {"input_shape": [null, 7, 7, 1152]}, "name": "block6d_project_conv_DCNN_A", "inbound_nodes": [[["block6d_se_excite_DCNN_A", 0, 0, {}]]]}, {"module": "keras.layers", "class_name": "ReLU", "config": {"name": "block_12_depthwise_relu_DCNN_B", "trainable": false, "dtype": "float32", "max_value": 6.0, "negative_slope": 0.0, "threshold": 0.0}, "registered_name": null, "build_config": {"input_shape": [null, 14, 14, 576]}, "name": "block_12_depthwise_relu_DCNN_B", "inbound_nodes": [[["block_12_depthwise_BN_DCNN_B", 0, 0, {}]]]}, {"module": "keras.layers", "class_name": "BatchNormalization", "config": {"name": "conv3_block3_2_bn_DCNN_C", "trainable": false, "dtype": "float32", "axis": [3], "momentum": 0.99, "epsilon": 1.001e-05, "center": true, "scale": true, "beta_initializer": {"module": "keras.initializers", "class_name": "Zeros", "config": {}, "registered_name": null}, "gamma_initializer": {"module": "keras.initializers", "class_name": "Ones", "config": {}, "registered_name": null}, "moving_mean_initializer": {"module": "keras.initializers", "class_name": "Zeros", "config": {}, "registered_name": null}, "moving_variance_initializer": {"module": "keras.initializers", "class_name": "Ones", "config": {}, "registered_name": null}, "beta_regularizer": null, "gamma_regularizer": null, "beta_constraint": null, "gamma_constraint": null}, "registered_name": null, "build_config": {"input_shape": [null, 28, 28, 128]}, "name": "conv3_block3_2_bn_DCNN_C", "inbound_nodes": [[["conv3_block3_2_conv_DCNN_C", 0, 0, {}]]]}, {"module": "keras.layers", "class_name": "BatchNormalization", "config": {"name": "block6d_project_bn_DCNN_A", "trainable": false, "dtype": "float32", "axis": [3], "momentum": 0.99, "epsilon": 0.001, "center": true, "scale": true, "beta_initializer": {"module": "keras.initializers", "class_name": "Zeros", "config": {}, "registered_name": null}, "gamma_initializer": {"module": "keras.initializers", "class_name": "Ones", "config": {}, "registered_name": null}, "moving_mean_initializer": {"module": "keras.initializers", "class_name": "Zeros", "config": {}, "registered_name": null}, "moving_variance_initializer": {"module": "keras.initializers", "class_name": "Ones", "config": {}, "registered_name": null}, "beta_regularizer": null, "gamma_regularizer": null, "beta_constraint": null, "gamma_constraint": null}, "registered_name": null, "build_config": {"input_shape": [null, 7, 7, 192]}, "name": "block6d_project_bn_DCNN_A", "inbound_nodes": [[["block6d_project_conv_DCNN_A", 0, 0, {}]]]}, {"module": "keras.layers", "class_name": "Conv2D", "config": {"name": "block_12_project_DCNN_B", "trainable": false, "dtype": "float32", "filters": 96, "kernel_size": [1, 1], "strides": [1, 1], "padding": "same", "data_format": "channels_last", "dilation_rate": [1, 1], "groups": 1, "activation": "linear", "use_bias": false, "kernel_initializer": {"module": "keras.initializers", "class_name": "GlorotUniform", "config": {"seed": null}, "registered_name": null}, "bias_initializer": {"module": "keras.initializers", "class_name": "Zeros", "config": {}, "registered_name": null}, "kernel_regularizer": null, "bias_regularizer": null, "activity_regularizer": null, "kernel_constraint": null, "bias_constraint": null}, "registered_name": null, "build_config": {"input_shape": [null, 14, 14, 576]}, "name": "block_12_project_DCNN_B", "inbound_nodes": [[["block_12_depthwise_relu_DCNN_B", 0, 0, {}]]]}, {"module": "keras.layers", "class_name": "Activation", "config": {"name": "conv3_block3_2_relu_DCNN_C", "trainable": false, "dtype": "float32", "activation": "relu"}, "registered_name": null, "build_config": {"input_shape": [null, 28, 28, 128]}, "name": "conv3_block3_2_relu_DCNN_C", "inbound_nodes": [[["conv3_block3_2_bn_DCNN_C", 0, 0, {}]]]}, {"module": "keras.layers", "class_name": "Dropout", "config": {"name": "block6d_drop_DCNN_A", "trainable": false, "dtype": "float32", "rate": 0.17500000000000002, "noise_shape": [null, 1, 1, 1], "seed": null}, "registered_name": null, "build_config": {"input_shape": [null, 7, 7, 192]}, "name": "block6d_drop_DCNN_A", "inbound_nodes": [[["block6d_project_bn_DCNN_A", 0, 0, {}]]]}, {"module": "keras.layers", "class_name": "BatchNormalization", "config": {"name": "block_12_project_BN_DCNN_B", "trainable": false, "dtype": "float32", "axis": [3], "momentum": 0.999, "epsilon": 0.001, "center": true, "scale": true, "beta_initializer": {"module": "keras.initializers", "class_name": "Zeros", "config": {}, "registered_name": null}, "gamma_initializer": {"module": "keras.initializers", "class_name": "Ones", "config": {}, "registered_name": null}, "moving_mean_initializer": {"module": "keras.initializers", "class_name": "Zeros", "config": {}, "registered_name": null}, "moving_variance_initializer": {"module": "keras.initializers", "class_name": "Ones", "config": {}, "registered_name": null}, "beta_regularizer": null, "gamma_regularizer": null, "beta_constraint": null, "gamma_constraint": null}, "registered_name": null, "build_config": {"input_shape": [null, 14, 14, 96]}, "name": "block_12_project_BN_DCNN_B", "inbound_nodes": [[["block_12_project_DCNN_B", 0, 0, {}]]]}, {"module": "keras.layers", "class_name": "Conv2D", "config": {"name": "conv3_block3_3_conv_DCNN_C", "trainable": false, "dtype": "float32", "filters": 512, "kernel_size": [1, 1], "strides": [1, 1], "padding": "valid", "data_format": "channels_last", "dilation_rate": [1, 1], "groups": 1, "activation": "linear", "use_bias": true, "kernel_initializer": {"module": "keras.initializers", "class_name": "GlorotUniform", "config": {"seed": null}, "registered_name": null}, "bias_initializer": {"module": "keras.initializers", "class_name": "Zeros", "config": {}, "registered_name": null}, "kernel_regularizer": null, "bias_regularizer": null, "activity_regularizer": null, "kernel_constraint": null, "bias_constraint": null}, "registered_name": null, "build_config": {"input_shape": [null, 28, 28, 128]}, "name": "conv3_block3_3_conv_DCNN_C", "inbound_nodes": [[["conv3_block3_2_relu_DCNN_C", 0, 0, {}]]]}, {"module": "keras.layers", "class_name": "Add", "config": {"name": "block6d_add_DCNN_A", "trainable": false, "dtype": "float32"}, "registered_name": null, "build_config": {"input_shape": [[null, 7, 7, 192], [null, 7, 7, 192]]}, "name": "block6d_add_DCNN_A", "inbound_nodes": [[["block6d_drop_DCNN_A", 0, 0, {}], ["block6c_add_DCNN_A", 0, 0, {}]]]}, {"module": "keras.layers", "class_name": "Add", "config": {"name": "block_12_add_DCNN_B", "trainable": false, "dtype": "float32"}, "registered_name": null, "build_config": {"input_shape": [[null, 14, 14, 96], [null, 14, 14, 96]]}, "name": "block_12_add_DCNN_B", "inbound_nodes": [[["block_11_add_DCNN_B", 0, 0, {}], ["block_12_project_BN_DCNN_B", 0, 0, {}]]]}, {"module": "keras.layers", "class_name": "Add", "config": {"name": "conv3_block3_out_DCNN_C", "trainable": false, "dtype": "float32"}, "registered_name": null, "build_config": {"input_shape": [[null, 28, 28, 512], [null, 28, 28, 512]]}, "name": "conv3_block3_out_DCNN_C", "inbound_nodes": [[["conv3_block2_out_DCNN_C", 0, 0, {}], ["conv3_block3_3_conv_DCNN_C", 0, 0, {}]]]}, {"module": "keras.layers", "class_name": "Conv2D", "config": {"name": "conv2d_3", "trainable": true, "dtype": "float32", "filters": 192, "kernel_size": [1, 1], "strides": [1, 1], "padding": "valid", "data_format": "channels_last", "dilation_rate": [1, 1], "groups": 1, "activation": "selu", "use_bias": true, "kernel_initializer": {"module": "keras.initializers", "class_name": "LecunNormal", "config": {"seed": null}, "registered_name": null}, "bias_initializer": {"module": "keras.initializers", "class_name": "Zeros", "config": {}, "registered_name": null}, "kernel_regularizer": null, "bias_regularizer": null, "activity_regularizer": null, "kernel_constraint": null, "bias_constraint": null}, "registered_name": null, "build_config": {"input_shape": [null, 7, 7, 192]}, "name": "conv2d_3", "inbound_nodes": [[["block6d_add_DCNN_A", 0, 0, {}]]]}, {"module": "keras.layers", "class_name": "Conv2D", "config": {"name": "conv2d_4", "trainable": true, "dtype": "float32", "filters": 192, "kernel_size": [8, 8], "strides": [1, 1], "padding": "valid", "data_format": "channels_last", "dilation_rate": [1, 1], "groups": 1, "activation": "selu", "use_bias": true, "kernel_initializer": {"module": "keras.initializers", "class_name": "LecunNormal", "config": {"seed": null}, "registered_name": null}, "bias_initializer": {"module": "keras.initializers", "class_name": "Zeros", "config": {}, "registered_name": null}, "kernel_regularizer": null, "bias_regularizer": null, "activity_regularizer": null, "kernel_constraint": null, "bias_constraint": null}, "registered_name": null, "build_config": {"input_shape": [null, 14, 14, 96]}, "name": "conv2d_4", "inbound_nodes": [[["block_12_add_DCNN_B", 0, 0, {}]]]}, {"module": "keras.layers", "class_name": "Conv2D", "config": {"name": "conv2d_5", "trainable": true, "dtype": "float32", "filters": 192, "kernel_size": [6, 6], "strides": [1, 1], "padding": "valid", "data_format": "channels_last", "dilation_rate": [1, 1], "groups": 1, "activation": "selu", "use_bias": true, "kernel_initializer": {"module": "keras.initializers", "class_name": "LecunNormal", "config": {"seed": null}, "registered_name": null}, "bias_initializer": {"module": "keras.initializers", "class_name": "Zeros", "config": {}, "registered_name": null}, "kernel_regularizer": null, "bias_regularizer": null, "activity_regularizer": null, "kernel_constraint": null, "bias_constraint": null}, "registered_name": null, "build_config": {"input_shape": [null, 28, 28, 512]}, "name": "conv2d_5", "inbound_nodes": [[["conv3_block3_out_DCNN_C", 0, 0, {}]]]}, {"module": "keras.layers", "class_name": "AveragePooling2D", "config": {"name": "average_pooling2d_3", "trainable": true, "dtype": "float32", "pool_size": [1, 1], "padding": "valid", "strides": [1, 1], "data_format": "channels_last"}, "registered_name": null, "build_config": {"input_shape": [null, 7, 7, 192]}, "name": "average_pooling2d_3", "inbound_nodes": [[["conv2d_3", 0, 0, {}]]]}, {"module": "keras.layers", "class_name": "AveragePooling2D", "config": {"name": "average_pooling2d_4", "trainable": true, "dtype": "float32", "pool_size": [1, 1], "padding": "valid", "strides": [1, 1], "data_format": "channels_last"}, "registered_name": null, "build_config": {"input_shape": [null, 7, 7, 192]}, "name": "average_pooling2d_4", "inbound_nodes": [[["conv2d_4", 0, 0, {}]]]}, {"module": "keras.layers", "class_name": "AveragePooling2D", "config": {"name": "average_pooling2d_5", "trainable": true, "dtype": "float32", "pool_size": [3, 3], "padding": "valid", "strides": [3, 3], "data_format": "channels_last"}, "registered_name": null, "build_config": {"input_shape": [null, 23, 23, 192]}, "name": "average_pooling2d_5", "inbound_nodes": [[["conv2d_5", 0, 0, {}]]]}, {"module": "keras.layers", "class_name": "AlphaDropout", "config": {"name": "alpha_dropout_3", "trainable": true, "dtype": "float32", "rate": 0.2, "seed": null}, "registered_name": null, "build_config": {"input_shape": [null, 7, 7, 192]}, "name": "alpha_dropout_3", "inbound_nodes": [[["average_pooling2d_3", 0, 0, {}]]]}, {"module": "keras.layers", "class_name": "AlphaDropout", "config": {"name": "alpha_dropout_4", "trainable": true, "dtype": "float32", "rate": 0.2, "seed": null}, "registered_name": null, "build_config": {"input_shape": [null, 7, 7, 192]}, "name": "alpha_dropout_4", "inbound_nodes": [[["average_pooling2d_4", 0, 0, {}]]]}, {"module": "keras.layers", "class_name": "AlphaDropout", "config": {"name": "alpha_dropout_5", "trainable": true, "dtype": "float32", "rate": 0.2, "seed": null}, "registered_name": null, "build_config": {"input_shape": [null, 7, 7, 192]}, "name": "alpha_dropout_5", "inbound_nodes": [[["average_pooling2d_5", 0, 0, {}]]]}, {"module": "keras.layers", "class_name": "Add", "config": {"name": "InitialFusionLayer", "trainable": true, "dtype": "float32"}, "registered_name": null, "build_config": {"input_shape": [[null, 7, 7, 192], [null, 7, 7, 192], [null, 7, 7, 192]]}, "name": "InitialFusionLayer", "inbound_nodes": [[["alpha_dropout_3", 0, 0, {}], ["alpha_dropout_4", 0, 0, {}], ["alpha_dropout_5", 0, 0, {}]]]}, {"module": "keras.layers", "class_name": "BatchNormalization", "config": {"name": "batch_normalization", "trainable": true, "dtype": "float32", "axis": [3], "momentum": 0.99, "epsilon": 0.001, "center": true, "scale": true, "beta_initializer": {"module": "keras.initializers", "class_name": "Zeros", "config": {}, "registered_name": null}, "gamma_initializer": {"module": "keras.initializers", "class_name": "Ones", "config": {}, "registered_name": null}, "moving_mean_initializer": {"module": "keras.initializers", "class_name": "Zeros", "config": {}, "registered_name": null}, "moving_variance_initializer": {"module": "keras.initializers", "class_name": "Ones", "config": {}, "registered_name": null}, "beta_regularizer": null, "gamma_regularizer": null, "beta_constraint": null, "gamma_constraint": null}, "registered_name": null, "build_config": {"input_shape": [null, 7, 7, 192]}, "name": "batch_normalization", "inbound_nodes": [[["InitialFusionLayer", 0, 0, {}]]]}, {"module": "keras.src.layers.core.tf_op_layer", "class_name": "TFOpLambda", "config": {"name": "tf.nn.selu", "trainable": true, "dtype": "float32", "function": "nn.selu"}, "registered_name": "TFOpLambda", "build_config": {"input_shape": [null, 7, 7, 192]}, "name": "tf.nn.selu", "inbound_nodes": [["batch_normalization", 0, 0, {"name": null}]]}, {"module": "keras.layers", "class_name": "Conv2D", "config": {"name": "conv2d_6", "trainable": true, "dtype": "float32", "filters": 192, "kernel_size": [1, 1], "strides": [1, 1], "padding": "valid", "data_format": "channels_last", "dilation_rate": [1, 1], "groups": 1, "activation": "linear", "use_bias": true, "kernel_initializer": {"module": "keras.initializers", "class_name": "LecunNormal", "config": {"seed": null}, "registered_name": null}, "bias_initializer": {"module": "keras.initializers", "class_name": "Zeros", "config": {}, "registered_name": null}, "kernel_regularizer": null, "bias_regularizer": null, "activity_regularizer": null, "kernel_constraint": null, "bias_constraint": null}, "registered_name": null, "build_config": {"input_shape": [null, 7, 7, 192]}, "name": "conv2d_6", "inbound_nodes": [[["tf.nn.selu", 0, 0, {}]]]}, {"module": "keras.layers", "class_name": "BatchNormalization", "config": {"name": "batch_normalization_1", "trainable": true, "dtype": "float32", "axis": [3], "momentum": 0.99, "epsilon": 0.001, "center": true, "scale": true, "beta_initializer": {"module": "keras.initializers", "class_name": "Zeros", "config": {}, "registered_name": null}, "gamma_initializer": {"module": "keras.initializers", "class_name": "Ones", "config": {}, "registered_name": null}, "moving_mean_initializer": {"module": "keras.initializers", "class_name": "Zeros", "config": {}, "registered_name": null}, "moving_variance_initializer": {"module": "keras.initializers", "class_name": "Ones", "config": {}, "registered_name": null}, "beta_regularizer": null, "gamma_regularizer": null, "beta_constraint": null, "gamma_constraint": null}, "registered_name": null, "build_config": {"input_shape": [null, 7, 7, 192]}, "name": "batch_normalization_1", "inbound_nodes": [[["conv2d_6", 0, 0, {}]]]}, {"module": "keras.src.layers.core.tf_op_layer", "class_name": "TFOpLambda", "config": {"name": "tf.nn.selu_1", "trainable": true, "dtype": "float32", "function": "nn.selu"}, "registered_name": "TFOpLambda", "build_config": {"input_shape": [null, 7, 7, 192]}, "name": "tf.nn.selu_1", "inbound_nodes": [["batch_normalization_1", 0, 0, {"name": null}]]}, {"module": "keras.layers", "class_name": "Conv2D", "config": {"name": "conv2d_7", "trainable": true, "dtype": "float32", "filters": 192, "kernel_size": [1, 1], "strides": [1, 1], "padding": "valid", "data_format": "channels_last", "dilation_rate": [1, 1], "groups": 1, "activation": "linear", "use_bias": true, "kernel_initializer": {"module": "keras.initializers", "class_name": "LecunNormal", "config": {"seed": null}, "registered_name": null}, "bias_initializer": {"module": "keras.initializers", "class_name": "Zeros", "config": {}, "registered_name": null}, "kernel_regularizer": null, "bias_regularizer": null, "activity_regularizer": null, "kernel_constraint": null, "bias_constraint": null}, "registered_name": null, "build_config": {"input_shape": [null, 7, 7, 192]}, "name": "conv2d_7", "inbound_nodes": [[["tf.nn.selu_1", 0, 0, {}]]]}, {"module": "keras.layers", "class_name": "Add", "config": {"name": "FuRB", "trainable": true, "dtype": "float32"}, "registered_name": null, "build_config": {"input_shape": [[null, 7, 7, 192], [null, 7, 7, 192]]}, "name": "FuRB", "inbound_nodes": [[["InitialFusionLayer", 0, 0, {}], ["conv2d_7", 0, 0, {}]]]}, {"module": "keras.layers", "class_name": "GlobalAveragePooling2D", "config": {"name": "global_average_pooling2d", "trainable": true, "dtype": "float32", "data_format": "channels_last", "keepdims": false}, "registered_name": null, "build_config": {"input_shape": [null, 7, 7, 192]}, "name": "global_average_pooling2d", "inbound_nodes": [[["FuRB", 0, 0, {}]]]}, {"module": "keras.layers", "class_name": "AlphaDropout", "config": {"name": "alpha_dropout_6", "trainable": true, "dtype": "float32", "rate": 0.5, "seed": null}, "registered_name": null, "build_config": {"input_shape": [null, 192]}, "name": "alpha_dropout_6", "inbound_nodes": [[["global_average_pooling2d", 0, 0, {}]]]}, {"module": "keras.layers", "class_name": "Dense", "config": {"name": "Softmax_ClassifierMFuReCNN_alpha_do_Learning_rate_0.01", "trainable": true, "dtype": "float32", "units": 4, "activation": "softmax", "use_bias": true, "kernel_initializer": {"module": "keras.initializers", "class_name": "GlorotUniform", "config": {"seed": null}, "registered_name": null}, "bias_initializer": {"module": "keras.initializers", "class_name": "Zeros", "config": {}, "registered_name": null}, "kernel_regularizer": null, "bias_regularizer": null, "activity_regularizer": null, "kernel_constraint": null, "bias_constraint": null}, "registered_name": null, "build_config": {"input_shape": [null, 192]}, "name": "Softmax_ClassifierMFuReCNN_alpha_do_Learning_rate_0.01", "inbound_nodes": [[["alpha_dropout_6", 0, 0, {}]]]}], "input_layers": [["input_1_DCNN_A_DCNN_B_DCNN_C_DCNN_A_DCNN_B_DCNN_C", 0, 0]], "output_layers": [["Softmax_ClassifierMFuReCNN_alpha_do_Learning_rate_0.01", 0, 0]]}, "keras_version": "2.14.0", "backend": "tensorflow"}